Continuous/Soft_Actor_Critic_Pytorch/policy_model.pth (torch, 276671 bytes, 6 tensors)

fc1.weight f4 [256, 8]
-0.44568622 -0.4784041 0.09842579 -0.34893173 -0.039124496 0.076438084 0.107159525 -0.58858335
0.26075935 -0.05479756 1.3888253 0.34712553 1.0654696 0.8398694 -0.41131097 -0.457997
-1.2763346 -0.57785434 -0.64409125 -0.75724185 -0.053655654 -0.38587683 0.006472106 -0.052598283
0.32784373 -0.50136167 0.3582536 0.06635994 -0.28467062 0.16136259 0.2247351 -0.407857
-0.98578614 -1.3364153 -0.80931926 -0.46447024 -0.08119786 0.18709208 0.20236875 -0.30475366
-0.10653727 -0.23027016 -1.3639219 0.6211695 -0.66764075 -1.1632676 -0.49471804 0.011010718
0.11934704 -0.45921594 -1.1335872 -0.29741678 2.2917607 -0.18620656 0.16787747 0.16792303
-0.71928215 0.18900181 -0.1513728 0.9627342 -0.008245695 0.11044671 -0.37501726 -0.35038206
-0.23307465 -0.22151048 3.153275 0.59535843 -0.4254988 0.40493184 0.12168516 0.05761327
0.18962373 0.3708364 1.7102722 0.62389433 -0.77403665 0.6254022 -0.017224872 -0.28484717
-0.40239894 -0.15944697 -0.7001729 1.4493771 -0.057963658 -1.020189 0.04202128 -0.24051152
1.0679548 -0.49545497 0.28798193 0.23426723 0.34438282 -0.017193655 0.3851996 0.009939452
-1.518728 0.038681038 -0.90514857 0.7317104 1.0805823 0.3085806 -0.3297192 0.009597137
-0.51572603 -1.5822132 1.1994144 0.96251404 1.1040928 -0.14103228 0.29003596 0.061852988
0.9350376 -0.5184289 -0.5894743 0.758328 0.6303283 -0.21434736 0.0154122235 -0.1673384
0.26239574 -0.86651355 0.36560386 0.46381763 0.6779071 1.0320799 0.037614975 -0.29343757
-1.4486598 -1.0519583 0.9956511 -0.10779284 0.031748466 0.43292174 0.24321622 0.058128536
0.22917764 -0.40319443 -0.8624009 1.5894643 0.5204574 -0.96246684 -0.2938948 -0.012846621
0.25808224 -0.34628588 -0.65768844 -0.9266374 1.9431082 -0.38020524 0.101773225 -0.6982595
-0.77649033 -0.17578128 -0.58255875 -0.3936143 0.27573758 -0.5350898 0.07364303 0.26944846
-0.09627081 -0.0038406847 -1.1579232 -0.59073913 0.5902029 0.55022675 -0.35703918 0.28147262
0.44243866 0.10405126 -0.6445966 -1.1911725 1.6216862 0.4027115 0.18780282 -0.23358428
-1.2800143 0.37360123 0.5300761 1.5131851 0.3001193 0.16521387 -0.14067046 -0.13328639
-0.50412047 0.16531254 0.63082695 -0.14348538 -1.5031608 -1.5376344 -0.69160014 0.20917542
0.053897094 -0.340226 1.1980873 -0.58532023 -0.54144424 0.1669001 0.0039007138 0.14526705
0.19264986 -0.15049551 -2.9873285 1.3525016 1.5012727 0.19437699 0.22215138 0.17551385
-0.34906077 -0.16423266 0.061455116 -0.76608235 -2.4754205 -0.09828728 0.4572173 -0.14689186
0.25567332 -1.4403461 -0.6880379 -0.3124693 0.54098403 -0.36441135 0.16892152 -0.49469686
0.13025501 -0.3016202 1.2094406 1.5143065 0.7544078 0.24238552 -0.4317027 -0.35443968
-1.2009101 -0.31488892 -0.47200954 0.04911343 0.34129155 -0.19892186 0.03659823 0.38111112
0.27670485 0.31224504 -0.50113904 -0.276639 -1.8919436 -1.9356564 0.1599588 -0.2220299
-0.13858767 0.27821308 -0.93536437 0.7739107 -1.1426553 -0.16421722 -0.4981549 0.43759903
00000000: fc30 e4be 62f1 f4be 7693 c93d 2ea7 b2be
00000010: 0241 20bd 928b 9c3d 7476 db3d 66ad 16bf
00000020: 4082 853e 6873 60bd 07c5 b13f 70ba b13e
00000030: 4f61 883f ae01 573f 5a97 d2be 957e eabe
00000040: ef5e a3bf 43ee 13bf 2ae3 24bf 9ada 41bf
00000050: 08c6 5bbd a691 c5be f613 d43b 4c71 57bd
00000060: 22db a73e 3d59 00bf 046d b73e b8e7 873d
00000070: 59c0 91be 3c3c 253e f520 663e a2d2 d0be
00000080: 7b5c 7cbf a80f abbf 8c2f 4fbf 0bcf edbe
00000090: 104b a6bd 1195 3f3e c139 4f3e ac08 9cbe
000000a0: 3630 dabd f1cb 6bbe fe94 aebf f704 1f3f
000000b0: 81ea 2abf f4e5 94bf af4b fdbe 4c66 343c
000000c0: 396c f43d 5a1e ebbe 6319 91bf 0347 98be
000000d0: 35ac 1240 efac 3ebe 12e8 2b3e 04f4 2b3e
000000e0: e022 38bf b189 413e 7901 1bbe c075 763f
000000f0: f418 07bc e231 e23d 4302 c0be 4765 b3be
00000100: 1fab 6ebe a5d3 62be 42cf 4940 6969 183f
00000110: fbda d9be 3a53 cf3e 1236 f93d e4fb 6b3d
00000120: b92c 423e 45de bd3e 33ea da3f 8ab7 1f3f
00000130: 4427 46bf 5c1a 203f 2d1b 8dbc 7dd7 91be
00000140: 3c07 cebe 1146 23be 883e 33bf 3085 b93f
00000150: 4d6b 6dbd 8e95 82bf 811e 2c3d a748 76be
00000160: beb2 883f 46ac fdbe 5e72 933e c0e3 6f3e
00000170: f252 b03e b5d9 8cbc e238 c53e 15d9 223c
00000180: ae65 c2bf 0270 1e3d d1b7 67bf 5f51 3b3f
00000190: 8550 8a3f 47fe 9d3e f4d0 a8be 4f3d 1d3c
000001a0: 9f06 04bf f685 cabf 6986 993f 5267 763f
000001b0: ea52 8d3f c46a 10be 987f 943e 8f59 7d3d
000001c0: a05e 6f3f c2b7 04bf cae7 16bf c921 423f
000001d0: 325d 213f e07d 5bbe 8d83 7c3c c25a 2bbe
000001e0: bc58 863e d5d3 5dbf 6e30 bb3e 8179 ed3e
000001f0: 528b 2d3f 321b 843f 2912 1a3d 733d 96be
00000200: af6d b9bf 92a6 86bf fee2 7e3f 7ec2 dcbd
00000210: ae0a 023d eba7 dd3e ac0d 793e 3018 6e3d
00000220: 8bad 6a3e 806f cebe 4ec6 5cbf 9173 cb3f
00000230: b23c 053f 3a64 76bf 6179 96be a27a 52bc
00000240: 5b23 843e 624c b1be 455e 28bf 1c38 6dbf
00000250: c5b7 f83f 43aa c2be 7b6e d03d 22c1 32bf
00000260: 12c8 46bf 0200 34be 9222 15bf d087 c9be
00000270: 7a2d 8d3e a5fb 08bf 28d2 963d 26f5 893e
00000280: a129 c5bd ffb3 7bbb d436 94bf ae3a 17bf
00000290: 8a17 173f a9db 0c3f d7cd b6be 2e1d 903e
000002a0: 5287 e23e d418 d53d 4804 25bf 5778 98bf
000002b0: 6a93 cf3f 3430 ce3e 624f 403e b830 6fbe
000002c0: 82d7 a3bf a948 bf3e 11b3 073f 0db0 c13f
000002d0: 3da9 993e d32d 293e eb0b 10be 3a7c 08be
000002e0: 0a0e 01bf b147 293e e07d 213f d5ed 12be
000002f0: 9367 c0bf 34d1 c4bf b50c 31bf 1532 563e
00000300: 33c3 5c3d 1a32 aebe ed5a 993f 8cd7 15bf
00000310: 179c 0abf dce7 2a3e 1ea3 7f3b e3c0 143e
00000320: 0146 453e 7f1b 1abe 6430 3fc0 c61e ad3f
00000330: b429 c03f c30a 473e a77b 633e e7b9 333e
00000340: 18b8 b2be 9b2c 28be 5cb8 7b3d f91d 44bf
00000350: 4a6d 1ec0 d74a c9bd 6318 ea3e d26a 16be
00000360: 9de7 823e 435d b8bf 4023 30bf fafb 9fbe
00000370: ee7d 0a3f 2094 babe c3f9 2c3e e848 fdbe
00000380: 9261 053e f66d 9abe f3ce 9a3f ccd4 c13f
00000390: df20 413f e933 783e 2308 ddbe 1e79 b5be
000003a0: 6cb7 99bf 1f39 a1be 3cab f1be 2a2b 493d
000003b0: c4bd ae3e 2cb2 4bbe 07e8 153d ff20 c33e
000003c0: 42ac 8d3e 95de 9f3e a64a 00bf a1a3 8dbe
000003d0: 352b f2bf 97c3 f7bf 3dcc 233e ce5b 63be
000003e0: ede9 0dbe f271 8e3e 0a74 6fbf 031f 463f
000003f0: 8742 92bf 8f28 28be 290e ffbe fb0c e03e

fc1.bias f4 [256]
0.30801168 -0.09479518 -0.03158956 -0.58882797 -0.24324237 0.08846336 -0.0892565 -0.20476937
0.009111118 -0.21601479 0.049143422 -0.5667296 0.13247551 -0.3470408 0.030471854 -0.013425
-0.46318182 0.052048914 -0.19678353 -0.46493676 -0.1483801 -0.29112935 0.009152776 -0.46939063
0.016802516 0.010390727 -0.23637165 -0.04333153 0.05582596 -0.42359215 -0.19499119 -0.4515844
-0.37360188 -0.011230355 -0.29052916 -0.0034443252 -0.00092323223 -0.0049518626 -0.5159776 -0.06018269
0.06435669 -0.23120712 -0.2392916 0.13791133 -0.118627355 0.076604776 -0.107172064 -0.19911806
-0.08087893 0.013062821 -0.21703519 0.01664044 -0.20938587 -0.4767967 0.006401685 -0.05981434
0.4240404 -0.22940241 -0.23555529 -0.0922208 -0.13506661 -0.54450023 -0.090480395 0.3323339
0.025009561 -0.2254605 0.119991854 0.013017984 -0.3874438 -0.08475379 0.3072542 0.100137055
-0.313685 -0.16849779 -0.52089924 -0.27164534 -0.103504196 0.25029054 -0.3560338 -0.26329607
-0.14591764 -0.18285358 -0.4980373 -0.085686564 -0.3456329 -0.18592295 0.15196782 0.04915266
0.03782008 -0.64996314 0.015562256 -0.20056474 -0.37383068 0.049851004 -0.28965604 -0.3711232
0.2326639 -0.28561544 -0.007026066 -0.23084429 0.022208685 -0.5450289 -0.47538832 -0.022569912
-0.39606076 -0.13634649 -0.03800502 0.08815023 0.042838316 -0.19134954 -0.0271164 -0.036358178
-0.21886587 -0.26423037 0.34659532 -0.33880925 0.011474204 -0.19681942 -0.19926839 -0.021476476
0.026243974 -0.6416486 -0.096931405 0.032072205 -0.5901088 -0.027552545 -0.08330948 -0.19806619
-0.25149268 -0.35550386 -0.10062573 -0.32756963 -0.10224984 -0.17965421 -0.095160484 -0.17646205
0.02991797 -0.23853149 -0.27348846 0.12070119 -0.38110372 -0.005715168 0.17457247 0.080933906
-0.022027902 -0.25951767 0.061696652 -0.024451844 0.37142685 -0.56543255 0.27538097 -0.021579694
-0.012720769 -0.34823567 -0.45983887 -0.36698127 0.16394776 -0.49839008 0.0023799795 0.028576488
-0.13844153 -0.43180653 -0.17597713 -0.51892877 -0.33115596 -0.29904428 -0.2987483 -0.1772799
0.18506818 -0.24219328 -0.35911 -0.44261944 -0.209487 -0.21872555 0.16700828 -0.099613786
0.053336512 -0.19197011 -0.0903951 0.10353437 0.047443524 -0.10264737 -0.19115882 -0.304934
0.11107207 -0.52888733 -0.73449653 0.28426763 -0.07688641 -0.11435477 -0.08107679 -0.046038885
-0.13742875 -0.20596592 -0.6026189 -0.20433415 -0.03961252 0.06324191 -0.35052103 -0.38802522
-0.12695411 0.007864009 -0.34250668 0.08906123 -0.15953262 -0.112250306 -0.37418732 -0.04391961
0.053560957 -0.2904941 0.21190856 -0.018620277 0.048067693 -0.23754373 -0.3769024 0.06946554
0.0020484917 -0.11716619 0.14938848 -0.3842976 -0.4419852 0.35379842 -0.37378883 -0.18589368
-0.28549862 0.13690662 -0.25850487 0.02125537 -0.5243183 0.049926337 0.16018678 -0.22688042
-0.5592577 -0.5421388 0.011041996 -0.1549544 0.07825401 -0.28933218 0.06171773 0.005838404
-0.38036412 0.20599559 -0.19673382 -0.21813685 0.22784847 0.045683514 -0.041148495 -0.3337056
-0.10505615 -0.30462772 0.1938587 -0.41298193 -0.12198789 -0.6137809 0.12158294 0.063913636
00000000: b5b3 9d3e fa23 c2bd 0e64 01bd 6ebd 16bf
00000010: 8714 79be 472c b53d 1dcc b6bd 10af 51be
00000020: cc46 153c fb32 5dbe 9d4a 493d 3115 11bf
00000030: a9a7 073e 55af b1be 1ca0 f93c 88f4 5bbc
00000040: 2b26 edbe 3e31 553d 9f81 49be 310c eebe
00000050: f4f0 17be e80e 95be 86f5 153c f853 f0be
00000060: 6ea5 893c de3d 2a3c 690b 72be 677c 31bd
00000070: c3a9 643d 12e1 d8be c5ab 47be 1236 e7be
00000080: bf48 bfbe 86ff 37bc 3dc0 94be 30ba 61bb
00000090: 1105 72ba 3c43 a2bb 1c17 04bf 2082 76bd
000000a0: 71cd 833d 8fc1 6cbe db08 75be a138 0d3e
000000b0: e6f2 f2bd f7e2 9c3d 077d dbbd 9be5 4bbe
000000c0: daa3 a5bd 7105 563c 793e 5ebe 8851 883c
000000d0: 4069 56be b21e f4be 3ac5 d13b e2ff 74bd
000000e0: d31b d93e 77e8 6abe 6835 71be 42de bcbd
000000f0: e74e 0abe 5e64 0bbf c94d b9bd ab27 aa3e
00000100: dae0 cc3c 1edf 66be 4abe f53d 6249 553c
00000110: 095f c6be 6593 adbd 6c50 9d3e a814 cd3d
00000120: 529b a0be af8a 2cbe a759 05bf 1915 8bbe
00000130: 02fa d3bd 1526 803e 104a b6be bece 86be
00000140: 6f6b 15be f83d 3bbe bffe febe 707c afbd
00000150: ccf6 b0be 9662 3ebe 749d 1b3e 4d54 493d
00000160: 3ae9 1a3d fc63 26bf d5f8 7e3c d860 4dbe
00000170: bc66 bfbe 9130 4c3d cc4d 94be dc03 bebe
00000180: 723f 6e3e 303c 92be ea3a e6bb 7262 6cbe
00000190: fdee b53c 0487 0bbf 1966 f3be 89e4 b8bc
000001a0: 7ac8 cabe 6a9e 0bbe 27ab 1bbd 1c88 b43d
000001b0: 3b77 2f3d 22f1 43be 3623 debc 50ec 14bd
000001c0: 601e 60be 3449 87be f174 b13e 6878 adbe
000001d0: 4dfe 3b3c 088b 49be 030d 4cbe 6fef afbc
000001e0: 9afd d63c 1543 24bf f983 c6bd 255e 033d
000001f0: 5f11 17bf e0b5 e1bc 299e aabd ddd1 4abe
00000200: a6c3 80be 9a04 b6be dd14 cebd 35b7 a7be
00000210: 5d68 d1bd 46f7 37be 80e3 c2bd 78b2 34be
00000220: 8816 f53c 9941 74be ae06 8cbe 2f32 f73d
00000230: 0720 c3be 4e46 bbbb 20c3 323e adc0 a53d
00000240: dc73 b4bc 80df 84be a1b5 7c3d 3c4f c8bc
00000250: a92b be3e 30c0 10bf bcfe 8c3e e6c7 b0bc
00000260: c66a 50bc f24b b2be 0070 ebbe f8e4 bbbe
00000270: ece1 273e fc2c ffbe 6ef9 1b3b 3d19 ea3c
00000280: 9ec3 0dbe bf15 ddbe 5933 34be 84d8 04bf
00000290: 468d a9be 551c 99be 8af5 98be dd88 35be
000002a0: 8382 3d3e 8401 78be 44dd b7be 049f e2be
000002b0: c383 56be 97f9 5fbe 3804 2b3e 5002 ccbd
000002c0: 6377 5a3d d093 44be 1121 b9bd d409 d43d
000002d0: 2454 423d c938 d2bd 23bf 43be 4f20 9cbe
000002e0: c179 e33d 2965 07bf f707 3cbf 878b 913e
000002f0: 9f76 9dbd d532 eabd 970b a6bd 4593 3cbd
00000300: 1fba 0cbe bbe8 52be 3b45 1abf f93c 51be
00000310: bd40 22bd f984 813d 7e77 b3be 3eab c6be
00000320: 4200 02be 0bd8 003c 095d afbe bc65 b63d
00000330: 855c 23be 7de3 e5bd 7b95 bfbe 0de5 33bd
00000340: bc62 5b3d a5bb 94be 8ffe 583e 8d89 98bc
00000350: a1e2 443d aa3e 73be 5af9 c0be f343 8e3d
00000360: fd3f 063b d4f4 efbd 4bf9 183e a8c2 c4be
00000370: e24b e2be 1125 b53e 4061 bfbe ea5a 3ebe
00000380: e02c 92be 4031 0c3e c05a 84be be1f ae3c
00000390: b939 06bf 8f7f 4c3d 0108 243e 5753 68be
000003a0: 832b 0fbf 9cc9 0abf 7de9 343c 5eac 1ebe
000003b0: a343 a03d 5923 94be bbcb 7c3d 1550 bf3b
000003c0: 16bf c2be 82f0 523e 9774 49be 445f 5fbe
000003d0: 1c51 693e a31e 3b3d 538b 28bd 76db aabe
000003e0: ae27 d7bd 2af8 9bbe e582 463e 5e72 d3be
000003f0: c9d4 f9bd bf20 1dbf 7a00 f93d 27e5 823d

fc2.weight f4 [256, 256]
-0.29188153 -0.061159715 0.28276128 -0.10600199 -0.33193275 -0.09080608 0.26890248 -1.8339372
-0.094750926 -1.2020798 -0.4018192 -0.17788668 0.011530935 -0.0656379 0.15717015 0.10231961
-0.1680391 -0.3221493 -0.058861006 0.3754636 0.602818 -0.09292537 -0.9085434 0.21328437
0.63322425 -0.20435774 0.3897421 0.6743431 -0.009233056 -0.18709731 -0.27519733 -0.06399983
0.056132376 -0.16216129 -0.3402993 -0.11859211 0.26838553 -0.27695632 0.027999748 -0.037218023
0.01236423 -0.4506628 -0.5582261 0.120173596 0.22368722 -1.1061883 -0.110928 -0.33457407
0.109367974 -0.07493654 0.3835159 -0.5720266 -0.36394837 0.045421213 0.23330867 -0.15986115
0.40503186 0.048863754 0.07969477 -0.4001272 -0.36193138 -0.87095755 0.41413948 0.77255887
-0.113549635 -0.14966246 -0.2913045 -0.30573314 0.19811188 -0.032648437 -0.2500261 0.39229113
-0.11870954 -0.8132279 -0.15810265 -0.038300246 0.097410925 0.30723935 -0.034100268 0.2145863
0.07771202 -0.07880921 0.2780567 -0.011771525 -0.5568932 0.13705596 0.1301253 -0.9116111
0.585631 0.3121291 -0.1895494 -0.7108948 0.101313 0.0342309 0.09395284 -0.34677267
-0.3034107 -0.30561042 0.15040785 -0.11230563 -0.29047117 -0.11611803 0.2594985 -0.6621737
-0.22970049 0.009632185 -1.3610657 -0.0490294 0.040722195 0.053312246 -0.10915237 0.113069475
0.09753685 -0.023297952 -0.46313047 0.28963548 -0.053257722 -0.38164732 0.16718277 -0.1587207
-0.22913177 -0.101250894 -0.006961775 -0.31896263 0.21174578 -0.2504427 0.46733183 -0.13189955
0.25237215 -0.064057745 0.048220515 -0.056372035 0.02436989 -0.47460368 0.30724284 0.06411497
0.60795027 -0.40885815 -0.3154946 -0.03450684 0.21314503 -0.3242705 -0.34855333 0.12398247
0.48606026 0.6272928 0.02628745 0.18262382 -0.029358413 -0.034594174 -0.065099366 0.5355008
0.19378604 -0.34798598 -0.05098879 -0.27999654 -0.7755536 -0.1348984 0.7350417 0.11397438
0.3999998 -0.19552469 -0.0104916245 -0.57119507 0.21546715 0.028842457 0.1968477 -0.30376828
0.098243475 0.33786008 -0.31767213 -0.091941334 -0.48361343 -0.23208456 0.67755574 -0.16556132
0.19585124 0.2426976 0.18208511 -0.2834206 -0.25421983 -0.4408936 -1.2310487 0.005856158
-0.081839554 0.060654044 0.37860367 1.0688986 -0.48729718 -0.7566891 0.11352273 -0.018725464
0.59984964 -0.16659161 -0.15831697 -0.9936579 -0.53268623 -0.30931798 -0.12357141 -0.01942963
0.28922513 -0.8522117 -0.58619535 0.15787129 0.497439 -0.6163099 -0.18534786 -0.49070337
0.16212223 -0.53343445 0.057202708 -0.8892524 -0.15692525 0.8792303 -0.79741025 -0.29694045
-0.1258144 -0.43001738 0.060375083 -0.14870274 -0.11165268 -0.42275354 0.55873644 -0.2339569
-0.62136525 0.8517653 -0.15722722 -0.73068774 -0.41039687 0.7779735 0.011373602 -0.45908087
-0.29233065 -0.27250865 0.16275164 0.029152231 -0.46324474 -0.20178768 -0.5524036 0.22355694
-0.25059327 0.20003842 0.10473677 0.20421435 -0.7204291 -0.08570986 0.059218742 -0.3954752
-0.07407112 -0.07940024 -0.47025853 0.21109547 0.38517916 -0.37275583 1.1003397 -0.117448494
00000000: 7f71 95be 9c82 7abd 16c6 903e 9217 d9bd
00000010: 17f3 a9be 8af8 b9bd 96ad 893e 74be eabf
00000020: c60c c2bd c0dd 99bf 3fbb cdbe ed27 36be
00000030: 3fec 3c3c 2a6d 86bd 36f1 203e f28c d13d
00000040: 7112 2cbe c1f0 a4be 3d18 71bd c43c c03e
00000050: 4852 1a3f a84f bebd 4d96 68bf 3867 5a3e
00000060: fc1a 223f 2843 51be 478c c73e c0a1 2c3f
00000070: 3e46 17bc 7096 3fbe aae6 8cbe 5812 83bd
00000080: 10eb 653d 9c0d 26be b63b aebe 6ce0 f2bd
00000090: d469 893e 38cd 8dbe ba5f e53c ed71 18bd
000000a0: 5793 4a3c 46bd e6be e8e7 0ebf 931d f63d
000000b0: 430e 653e 9497 8dbf 382e e3bd 4b4d abbe
000000c0: 51fc df3d 5478 99bd 325c c43e 5670 12bf
000000d0: 7157 babe 980b 3a3d 78e8 6e3e a4b2 23be
000000e0: 5660 cf3e 5c25 483d 0337 a33d 79dd ccbe
000000f0: 124f b9be 13f7 5ebf 170a d43e 6bc6 453f
00000100: b68c e8bd 1e41 19be dd25 95be 0e89 9cbe
00000110: d7dd 4a3e 5eba 05bd 6c03 80be 62da c83e
00000120: fd1d f3bd b42f 50bf a9e5 21be b8e0 1cbd
00000130: 617f c73d 7a4e 9d3e b9ac 0bbd 83bc 5b3e
00000140: 7b27 9f3d b966 a1bd 735d 8e3e 5bdd 40bc
00000150: 8e90 0ebf 6658 0c3e 913f 053e 585f 69bf
00000160: eaeb 153f 63cf 9f3e 3d19 42be 34fd 35bf
00000170: 317d cf3d b335 0c3d 596a c03d 308c b1be
00000180: a658 9bbe f878 9cbe 8404 1a3e 7f00 e6bd
00000190: a3b8 94be 4acf edbd fddc 843e 3784 29bf
000001a0: 9b36 6bbe 50d0 1d3c 6737 aebf 0dd3 48bd
000001b0: 51cc 263d f15d 5a3d 478b dfbd f890 e73d
000001c0: 66c1 c73d 59db bebc 701f edbe 1a4b 943e
000001d0: c524 5abd 4767 c3be f631 2b3e ae87 22be
000001e0: 85a1 6abe a15c cfbd 9a1f e4bb 124f a3be
000001f0: e3d3 583e 073a 80be 1e46 ef3e ad10 07be
00000200: ec36 813e b530 83bd e082 453d 5de6 66bd
00000210: 5da3 c73c 41ff f2be ef4e 9d3e b64e 833d
00000220: a1a2 1b3f db55 d1be 8288 a1be 0b57 0dbd
00000230: b142 5a3e c806 a6be 9575 b2be 85ea fd3d
00000240: e4dc f83e 4396 203f c758 d73c bd01 3b3e
00000250: 0e81 f0bc 9fb2 0dbd d152 85bd 9516 093f
00000260: d96f 463e 382b b2be 9fd9 50bd b55b 8fbe
00000270: ae8a 46bf ce22 0abe b12b 3c3f 666b e93d
00000280: c6cc cc3e a037 48be 10e5 2bbc d739 12bf
00000290: 6ca3 5c3e 0447 ec3c 7292 493e 8487 9bbe
000002a0: e033 c93d fffb ac3e eca5 a2be bd4b bcbd
000002b0: 2e9c f7be 93a7 6dbe 4b74 2d3f e888 29be
000002c0: 3a8d 483e b885 783e 8574 3a3e 811c 91be
000002d0: 1a29 82be cebc e1be 0193 9dbf 04e5 bf3b
000002e0: 7f9b a7bd 6070 783d 57d8 c13e abd1 883f
000002f0: 047f f9be 60b6 41bf 9b7e e83d 2566 99bc
00000300: bf8f 193f fe96 2abe d81d 22be 5d60 7ebf
00000310: 205e 08bf ed5e 9ebe 0213 fdbd e32a 9fbc
00000320: 5115 943e 8c2a 5abf e610 16bf 03a9 213e
00000330: 53b0 fe3e 7cc6 1dbf d4cb 3dbe 793d fbbe
00000340: 5f03 263e 298f 08bf 634d 6a3d 0ca6 63bf
00000350: 03b1 20be 3d15 613f 1423 4cbf 9408 98be
00000360: 7dd5 00be 3d2b dcbe dd4b 773d 8845 18be
00000370: 29aa e4bd 2773 d8be 5a09 0f3f 6692 6fbe
00000380: cb11 1fbf 4a0d 5a3f 2c00 21be 5a0e 3bbf
00000390: 8a1f d2be 4529 473f 5858 3a3c a60c ebbe
000003a0: 5dac 95be 4186 8bbe 5ea8 263e a9d0 ee3c
000003b0: 6a2e edbe 6ea1 4ebe 536a 0dbf 1cec 643e
000003c0: c34d 80be dfd6 4c3e 3b80 d63d 911d 513e
000003d0: 0b6e 38bf a788 afbd 5a8f 723d ba7b cabe
000003e0: 99b2 97bd 989c a2bd bac5 f0be 6929 583e
000003f0: 3436 c53e dad9 bebe eed7 8c3f d688 f0bd

fc2.bias f4 [256]
-0.49675074 -0.32047635 -0.03338307 -0.09618753 -0.18117675 -0.05516225 -0.25306407 -0.077217415
-0.013072179 0.12574258 -0.20056142 -0.24459098 -0.0034775622 0.27953276 -0.12146627 -0.5164581
0.021905672 -0.16794951 0.029290954 -0.43431664 -0.08450711 -0.007139706 -0.4745568 -0.19869274
0.14093462 -0.11869912 0.06563273 -0.05811363 0.25137067 -0.07641004 0.6185492 0.009661779
-0.13535027 -0.042292543 -0.06957102 -0.4032669 -0.06439165 -0.21169285 -0.27525568 -0.44457442
0.20684211 -0.10819462 -0.06296626 -0.508601 0.18805659 -0.007333438 -0.2554122 -0.4107721
-0.051953126 -0.1995514 0.1907771 -0.5120205 -0.29390416 0.004743582 -0.22153609 0.24420911
-0.2736477 -0.3108368 0.024187468 -0.020534595 -0.10476409 0.112324774 -0.21928662 0.022653764
-0.3519158 0.22441804 -0.17387962 -0.077670254 -0.033575095 0.02363258 -0.057871237 0.1022651
-0.17191662 -0.045476783 -0.055878244 -0.03968272 0.041292228 -0.071059786 0.39546776 -0.41917372
0.26778382 -0.05423463 -0.6362157 0.1458229 -0.007649927 -0.26659137 -0.231615 -0.13137227
-0.23376301 -0.06889736 -0.33544588 0.019464308 0.13747211 -0.024520809 -0.05172745 0.554519
-0.033168823 -0.22796008 -0.052077465 -0.15980597 -0.16361424 -0.14789048 0.33911926 -0.036361124
-0.027077079 -0.34550864 -0.27381283 -0.31082258 -0.42130914 0.27169254 -0.015064514 -0.05181718
-0.027614396 -0.26866832 -0.48692045 0.36683303 -0.54831797 -0.096168354 -0.055452783 -0.13942936
-0.34164754 0.040025525 0.013786476 0.25758067 -0.30493656 0.1400154 0.35010287 -0.064299025
-0.33234677 -0.17502442 -0.3522343 0.070190996 0.005228158 -0.03526979 -0.060210057 0.11376974
-0.17621838 -0.17410229 0.22571798 -0.017533245 -0.008233412 -0.36994377 -0.0695859 0.12335253
-0.24660434 -0.23382708 -0.40813893 -0.09260009 0.1247629 -0.15423584 -0.23649046 -0.33491915
0.45635623 -0.05817386 0.34072652 0.17578338 -0.067758985 -0.04238116 -0.0666116 -0.38102776
0.025702568 -0.06886504 -0.04858587 -0.120391764 -0.06100441 -0.1046489 -0.057923585 -0.20959559
-0.049286436 -0.114394896 -0.15551563 -0.054229867 -0.1740191 -0.02345141 -0.11941956 0.2532425
0.21023485 -0.41828373 -0.06939583 0.034173835 -0.08114343 -0.16163975 0.08488529 -0.33142886
-0.25158113 -0.0055651446 -0.052549988 0.081067234 0.0032555661 0.10331455 0.37106597 -0.33714542
-0.24111606 -0.15312076 0.12378601 0.3219198 -0.14639175 -0.006569518 -0.00943244 -0.06844145
-0.10328403 -0.06105992 -0.28260994 0.019249044 0.028063618 0.0062475814 0.026357539 0.1696485
-0.08822869 -0.060243107 -0.53979653 -0.018485144 -0.14521225 0.087797 0.11314728 -0.2401224
0.17497973 -0.07843736 0.393681 -0.22404955 0.19424842 -0.4431021 -0.030716373 -0.034317933
-0.06991726 -0.055070177 0.1918172 -0.029346218 -0.2325528 0.3367972 -0.037936315 -0.07807469
-0.036116287 -0.04630684 -0.27022696 -0.047870994 -0.23563126 -0.022541987 -0.012597139 0.19213793
0.034748487 0.121210866 -0.033153366 -0.01073205 0.049476996 0.085397325 0.031403087 -0.22951056
-0.40616772 0.09619995 -0.052546747 0.06326956 0.0010254991 0.19750276 -0.23613566 -0.21078722
00000000: 1d56 febe 7a15 a4be b0bc 08bd f8fd c4bd
00000010: 6686 39be d0f1 61bd 9d91 81be 2a24 9ebd
00000020: b12c 56bc aac2 003e f95f 4dbe 0f76 7abe
00000030: d0e7 63bb eb1e 8f3e 4fc3 f8bd 9936 04bf
00000040: 8673 b33c f5fa 2bbe 95f3 ef3c c05e debe
00000050: 1012 adbd 32f4 e9bb 1cf9 f2be 1c76 4bbe
00000060: 2a51 103e 8618 f3bd 746a 863d 8f08 6ebd
00000070: a8b3 803e de7c 9cbd 3e59 1e3f 704c 1e3c
00000080: 4399 0abe f23a 2dbd 407b 8ebd 0079 cebe
00000090: c5df 83bd 03c6 58be 50ee 8cbe 429f e3be
000000a0: 6bce 533e 2495 ddbd 74f4 80bd ad33 02bf
000000b0: e891 403e 564d f0bb 63c5 82be b850 d2be
000000c0: cdcc 54bd 3457 4cbe 125b 433e c713 03bf
000000d0: 9b7a 96be 0d70 9b3b 5bda 62be f411 7a3e
000000e0: 8d1b 8cbe 0026 9fbe cc24 c63c 2b38 a8bc
000000f0: 8e8e d6bd 880a e63d ac8c 60be 6394 b93c
00000100: 4f2e b4be d8cd 653e 800d 32be 9511 9fbd
00000110: 0a86 09bd 1d99 c13c 640a 6dbd 5d70 d13d
00000120: e90a 30be dd45 3abd 96e0 64bd 598a 22bd
00000130: 0a22 293d cb87 91bd c07a ca3e f09d d6be
00000140: f61a 893e 2225 5ebd 08df 22bf 9952 153e
00000150: 3dac fabb aa7e 88be 7c2c 6dbe 7486 06be
00000160: 925f 6fbe 0f1a 8dbd 90bf abbe 9d73 9f3c
00000170: 7dc5 0c3e dddf c8bc 2ae0 53bd f5f4 0d3f
00000180: 08dc 07bd 5e6e 69be 2e4f 55bd 2da4 23be
00000190: 7e8a 27be 9a70 17be 0aa1 ad3e 67ef 14bd
000001a0: c0d0 ddbc 82e6 b0be 3231 8cbe 2324 9fbe
000001b0: d5b5 d7be 491b 8b3e 27d1 76bc 403e 54bd
000001c0: 9637 e2bc e58e 89be a34d f9be 8ad1 bb3e
000001d0: 915e 0cbf eaf3 c4bd 7522 63bd 92c6 0ebe
000001e0: 6dec aebe cef1 233d ace0 613c 9de1 833e
000001f0: a520 9cbe 3260 0f3e af40 b33e 35af 83bd
00000200: 5b29 aabe 9a39 33be 0e58 b4be 4cc0 8f3d
00000210: f850 ab3b 0e77 10bd d29e 76bd 1c00 e93d
00000220: 9772 34be df47 32be 9d22 673e e1a1 8fbc
00000230: 6fe5 06bc 4569 bdbe 0d83 8ebd 40a0 fc3d
00000240: d985 7cbe 5e70 6fbe 96f7 d0be 1ea5 bdbd
00000250: b183 ff3d 00f0 1dbe 8e2a 72be 867a abbe
00000260: 86a7 e93e b747 6ebd b573 ae3e 8f00 343e
00000270: 39c5 8abd de97 2dbd aa6b 88bd 1216 c3be
00000280: 318e d23c 1d09 8dbd fa01 47bd f58f f6bd
00000290: c3df 79bd 2a52 d6bd 4841 6dbd 3aa0 56be
000002a0: 93e0 49bd df47 eabd 7d3f 1fbe 2320 5ebd
000002b0: 1032 32be 2c1d c0bc 3e92 f4bd 00a9 813e
000002c0: ce47 573e 4929 d6be 671f 8ebd ddf9 0b3d
000002d0: 872e a6bd e484 25be 57d8 ad3d 0bb1 a9be
000002e0: 3ecf 80be d15b b6bb a83e 57bd 9406 a63d
000002f0: 565b 553b 9496 d33d 5cfc bd3e 539e acbe
00000300: 21e7 76be b0cb 1cbe 8583 fd3d acd2 a43e
00000310: b8e7 15be 1c45 d7bb 858a 1abc 082b 8cbd
00000320: 9486 d3bd f719 7abd 40b2 90be 2cb0 9d3c
00000330: ace5 e53c 83b8 cc3b c4eb d73c 56b8 2d3e
00000340: 3eb1 b4bd 7ac1 76bd 1b30 0abf 286e 97bc
00000350: 85b2 14be eace b33d c3b9 e73d a5e2 75be
00000360: e32d 333e c4a3 a0bd 8e90 c93e 3f6d 65be
00000370: 0fe9 463e 47de e2be e7a0 fbbc f690 0cbd
00000380: c830 8fbd 4491 61bd ba6b 443e 7b67 f0bc
00000390: 5222 6ebe af70 ac3e 1c63 1bbd a0e5 9fbd
000003a0: acee 13bd 3eac 3dbd 305b 8abe 6014 44bd
000003b0: 5249 71be f9a9 b8bc 3b64 4ebc cebf 443e
000003c0: 6e54 0e3d 673d f83d d3cb 07bd 7bd5 2fbc
000003d0: 64a8 4a3d cbe4 ae3d 86a0 003d d104 6bbe
000003e0: 37f5 cfbe 7b04 c53d 423b 57bd 7993 813d
000003f0: 0a6a 863a 2a3e 4a3e 8ccd 71be 9bd8 57be

fc3.weight f4 [2, 256]
2.7057393 2.2555943 -0.022884231 0.08827919 0.49155113 0.02048551 0.26804164 0.8538615
-0.006963832 -0.09706627 0.5943948 -0.56229085 -0.001725941 -1.4636325 0.6069834 2.7845788
0.005467295 4.0146017 1.5326089 -0.46541122 -0.8372275 0.0025609175 -0.096389085 3.385927
-0.1963666 0.077420086 1.0502638 -0.008378901 0.09334307 -0.04742468 -0.63656235 -0.01618878
1.1294429 -0.014091443 -0.019041626 0.3374551 0.25622627 0.20544769 0.08642886 0.8003181
-0.30018356 0.30184177 0.022302106 -0.8616289 -0.8680583 -0.03526703 -0.033707805 -0.59282595
-0.0137730725 3.121518 1.1599957 0.12408352 0.81982034 0.25307843 1.103208 -0.5734515
0.2662629 0.84304315 0.14572166 -0.416839 0.21178184 -0.40730628 -0.12150629 0.005830938
0.3876114 0.77073824 0.83842593 0.0011404722 1.3857228 0.009993088 -0.011249461 -0.36296788
-0.21219835 -0.017035339 2.9549003 0.010246713 0.1985051 -0.05409675 -0.034997273 0.85365874
-0.7600026 0.016057353 -0.7453291 -1.0617818 -1.6188177 0.7781473 1.2565193 0.3511761
1.5844502 -0.039625805 -4.490585 1.5098671 -0.8894303 -0.4684938 0.087102436 -2.1626887
-0.029802015 0.8720841 -0.03147511 -0.29803002 0.9714434 -0.64288443 -0.043753438 -0.2954268
-0.02656379 0.059586138 -0.5612093 -0.06332722 0.29695654 -1.3369064 -0.4478124 1.0311718
0.0038653703 0.65128547 -0.11009052 0.19783533 -0.09442646 -1.0479078 -0.54062384 0.5945785
1.3808393 0.025180079 0.01030536 0.14926124 0.64828956 -0.91303563 -0.77913785 0.007101686
-0.26458985 -0.55994177 0.6137875 -0.72692937 -0.025637038 0.16242164 -0.056430656 -0.449541
0.3158864 0.16116244 -0.56833655 -0.052558362 -0.0017268723 0.6335234 -0.045162037 -0.6652394
0.68721527 0.4574172 0.31326306 0.7194188 -0.28307799 0.65684175 0.36864966 2.088822
-0.4698335 -0.019129759 -1.5912198 -0.86748344 -0.77116525 0.7643009 -0.004961268 -3.1870384
2.1984048 0.009906351 -0.19165176 1.3541198 0.058661018 -0.097600155 0.0386099 0.66042054
2.851072 0.038737256 -0.19589983 0.81982243 0.6824997 -0.025642877 -0.12963565 -0.44408652
-1.4536065 0.9564148 0.15322326 -1.0307268 -0.6770133 2.1973777 2.5958488 0.38026914
0.19145165 -0.02853865 -1.869897 0.85122454 1.4866285 0.76853144 -1.0155617 0.39790294
0.9712725 2.4536655 0.57169724 0.8467951 -2.4739323 -0.00473974 0.004639947 0.07701792
0.4822527 0.005822792 0.65294963 0.0021561286 -0.019790908 0.12447277 -0.117796674 -0.7081049
0.9065572 -0.038631245 0.27907273 0.031821277 1.3094803 0.083640024 -0.12058733 -0.15322374
0.13272062 -0.043482278 -0.6257493 0.48696518 -1.9344313 1.6268371 -0.69628483 -0.019840276
-0.059461407 -0.010897366 -0.19479164 0.04014456 0.1778148 -1.6050948 0.28795022 -0.00042896174
0.13051268 -0.87960505 -0.51074016 -0.23322462 0.058686938 -0.04358574 0.02426836 -0.28889862
0.48127353 -0.10956273 0.06109688 0.009711982 -1.212511 -1.3454386 -0.49901775 0.007326446
0.28328562 1.8459656 0.014298995 0.14003904 -0.16932265 2.1913598 0.7073943 1.5139502
00000000: d52a 2d40 a85b 1040 b677 bbbc b8cb b43d
00000010: 97ac fb3e 3ad1 a73c c13c 893e ab96 5a3f
00000020: db30 e4bb aeca c6bd 422a 183f 4bf2 0fbf
00000030: f838 e2ba 4f58 bbbf 4463 1b3f 8a36 3240
00000040: ff26 b33b 9e77 8040 872c c43f 614a eebe
00000050: 8b54 56bf 11d5 273b a467 c5bd 07b3 5840
00000060: 5314 49be 6c8e 9e3d 0b6f 863f a847 09bc
00000070: a72a bf3d 6240 42bd c0f5 22bf 559e 84bc
00000080: 9691 903f ccdf 66bc 2ffd 9bbc eac6 ac3e
00000090: 1730 833e e160 523e 9d01 b13d a6e1 4c3f
000000a0: a9b1 99be 018b 9a3e e8b2 b63c b693 5cbf
000000b0: 1239 5ebf 2974 10bd 3211 0abd 71c3 17bf
000000c0: 74a8 61bc f3c6 4740 bd7a 943f 801f fe3d
000000d0: bfdf 513f 7f93 813e eb35 8d3f b8cd 12bf
000000e0: 9c53 883e add1 573f 0f38 153e ec6b d5be
000000f0: 57dd 583e 738a d0be 4ad8 f8bd 7411 bf3b
00000100: 0075 c63e 1a4f 453f 15a3 563f e67b 953a
00000110: 5d5f b13f 0dba 233c a94f 38bc edd6 b9be
00000120: 864a 59be b28d 8bbc 161d 3d40 d4e1 273c
00000130: ec44 4b3e 8e94 5dbd 4d59 0fbd 6189 5a3f
00000140: 888f 42bf b68a 833c e3cd 3ebf 77e8 87bf
00000150: 6b35 cfbf a934 473f a0d5 a03f 5bcd b33e
00000160: 44cf ca3f ab4e 22bd dfb2 8fc0 5343 c13f
00000170: b4b1 63bf 6bde efbe c362 b23d 7e69 0ac0
00000180: 5b23 f4bc e740 5f3f 0cec 00bd 6497 98be
00000190: 84b0 783f 1394 24bf ce36 33bd 2e42 97be
000001a0: 4e9c d9bc 9810 743d 6aab 0fbf b4b1 81bd
000001b0: b00a 983e c01f abbf ab47 e5be 70fd 833f
000001c0: 2752 7d3b a5ba 263f 2377 e1bd 5895 4a3e
000001d0: a962 c1bd d821 86bf 5366 0abf 4c36 183f
000001e0: 58bf b03f 7446 ce3c d0d7 283c f0d7 183e
000001f0: 4ef6 253f b4bc 69bf 9475 47bf 43b5 e83b
00000200: 5278 87be 5858 0fbf 2d21 1d3f 0b18 3abf
00000210: c404 d2bc dc51 263e d523 67bd 3d2a e6be
00000220: ddbb a13e c407 253e 817e 11bf 7047 57bd
00000230: 3858 e2ba 972e 223f d4fb 38bd 214d 2abf
00000240: 57ed 2f3f 9632 ea3e 0464 a03e d52b 383f
00000250: 99ef 90be c826 283f a6bf bc3e 42af 0540
00000260: 048e f0be 03b6 9cbc 17ad cbbf 6513 5ebf
00000270: 166b 45bf 39a9 433f 2292 a2bb 70f8 4bc0
00000280: aab2 0c40 3f4e 223c 5c40 44be cc53 ad3f
00000290: 8946 703d 97e2 c7bd 6a25 1e3d 5211 293f
000002a0: f777 3640 f5aa 1e3d f799 48be e2df 513f
000002b0: 4db8 2e3f 0311 d2bc 35bf 04be 4f5f e3be
000002c0: c70f babf 9ad7 743f 8fe6 1c3e dbee 83bf
000002d0: be50 2dbf d6a1 0c40 6322 2640 a3b2 c23e
000002e0: e70b 443e e3c9 e9bc c958 efbf dae9 593f
000002f0: d849 be3f 7abe 443f edfd 81bf efb9 cb3e
00000300: 51a5 783f db08 1d40 c05a 123f 90c7 583f
00000310: e854 1ec0 d24f 9bbb b20a 983b 92bb 9d3d
00000320: d3e9 f63e 1fcd be3b b527 273f d64d 0d3b
00000330: 8b20 a2bc 94eb fe3d 623f f1bd 5d46 35bf
00000340: 2214 683f cc3b 1ebd 9fe2 8e3e 0757 023d
00000350: 0d9d a73f 764b ab3d 7df6 f6bd afe6 1cbe
00000360: eae7 073e 791a 32bd 1b31 20bf 8053 f93e
00000370: 729b f7bf 333c d03f b93f 32bf 1388 a2bc
00000380: ce8d 73bd de8a 32bc 7677 47be 9f6e 243d
00000390: 1515 363e bf73 cdbf 366e 933e 45e6 e0b9
000003a0: 1ea5 053e cc2d 61bf debf 02bf 6fd2 6ebe
000003b0: b761 703d f686 32bd 71ce c63c 85ea 93be
000003c0: 7c69 f63e 6d62 e0bd b940 7a3d 011f 1f3c
000003d0: 8f33 9bbf 5537 acbf 417f ffbe af12 f03b
000003e0: d00a 913e 9a48 ec3f 5546 6a3c 6566 0f3e
000003f0: eb62 2dbe 3d3f 0c40 cb17 353f 1fc9 c13f

fc3.bias f4 [2]
-0.8682308 -0.03806249
00000000: 6044 5ebf 6ae7 1bbd
