Continuous/Soft_Actor_Critic_Pytorch/q1_model.pth (torch, 277663 bytes, 5 tensors)

fc1.weight f4 [256, 10]
0	0xbf5e8b7f	-0.86931604
1	0xbc0fe9f6	-0.008783808
2	0xbee55072	-0.44787937
3	0x3ec219bb	0.37910256
4	0x3d710746	0.058844827
5	0xbe4bc2ad	-0.19898482
6	0xbd5b0278	-0.05346915
7	0x3eefd228	0.46840024
8	0x3c7a5376	0.015278688
9	0xbabeadd7	-0.0014547658
10	0x3f1885cf	0.59579176
11	0x3f1d254e	0.6138505
12	0xbde88e01	-0.1135521
13	0xbd5a76e1	-0.053336028
14	0xbf12dede	-0.5737132
15	0xbe847643	-0.25871477
16	0xbf41fdbf	-0.7577781
17	0xbee4b8b0	-0.44672155
18	0xb9589193	-0.00020653596
19	0x3cb222d6	0.021745127
20	0xbd5972d6	-0.05308803
21	0xbfa1535f	-1.2603568
22	0x3f4780c7	0.77930874
23	0xbf801f7a	-1.0009606
24	0xbee371f8	-0.4442289
25	0x3ec39c02	0.38204962
26	0xbe210839	-0.15725793
27	0xbea3fc6d	-0.32028523
28	0xbd04c2b3	-0.032412242
29	0xbd28d103	-0.041214954
30	0xbdff4eed	-0.12466226
31	0xbee6a051	-0.45044187
32	0x3ef12f10	0.47106218
33	0xbf46d211	-0.77664286
34	0x3f4ee0aa	0.8081156
35	0x3e464ff1	0.19366433
36	0x3e9c5433	0.3053299
37	0x3dc89012	0.09793104
38	0xbc929677	-0.017894013
39	0xbcee696d	-0.029103005
40	0xbdd88135	-0.10571519
41	0x3eaa4523	0.33255872
42	0x3ed83293	0.42226085
43	0xbe8fe198	-0.28101802
44	0xbdd2ee4c	-0.10299358
45	0x3d8a98fd	0.067674614
46	0xbf03719c	-0.5134523
47	0xbf14c43e	-0.5811194
48	0xbd08f2c8	-0.03343466
49	0xbd210879	-0.03931472
50	0xbf107dd5	-0.56442004
51	0x3db9cc4d	0.090721704
52	0xbe2629f4	-0.16226941
53	0x3e496b25	0.19669779
54	0x3f37b078	0.71753645
55	0x3e5e30b5	0.21698268
56	0x3e2becd6	0.16789564
57	0xbdf96879	-0.1217813
58	0xbd04a9cf	-0.032388505
59	0xbc7e0642	-0.015504422
60	0xbf0ed7bc	-0.55797935
61	0x3e2ee842	0.17080787
62	0xbf4b6cb4	-0.7946274
63	0xbf1d47c0	-0.61437607
64	0x3f1ea827	0.6197533
65	0x3e3ab3eb	0.18232696
66	0x3e40e98f	0.18839096
67	0xbecea086	-0.40356845
68	0xbe170f0b	-0.14751832
69	0xbe14420d	-0.14478321
70	0x3f6cacaf	0.92450994
71	0xbd002918	-0.03128919
72	0x3f279a7f	0.6547012
73	0xbda6a1cf	-0.08136331
74	0xbe212c38	-0.15739524
75	0x3f30c3e3	0.690489
76	0x3d0ba559	0.034093235
77	0x3f00ef50	0.5036516
78	0xbc075ccb	-0.00826187
79	0xbcbcee86	-0.023062956
80	0xbe1e2fa4	-0.15447861
81	0x3e54edc7	0.2079383
82	0x3ff30fe3	1.8989223
83	0xbf2aacfa	-0.6667019
84	0x3f0c9ef7	0.5493006
85	0x3e12bf9f	0.1433091
86	0x3df32cf9	0.11873812
87	0x3b2d727c	0.0026465943
88	0xbc95a0fe	-0.018265244
89	0x3c8d8fd3	0.017280495
90	0x3d91bf6f	0.07116591
91	0x3e16fbb2	0.14744452
92	0x3f155373	0.5833046
93	0xbea64635	-0.3247544
94	0xbd76f1bb	-0.060289126
95	0x3e291d8a	0.16515175
96	0x3ea9d698	0.33171535
97	0x3c968fe3	0.018379157
98	0x3c70647e	0.014672397
99	0xbc210e84	-0.009830121
100	0xbf09ca6a	-0.53824484
101	0xbbde524a	-0.006784712
102	0xbf47e84e	-0.78088844
103	0x3f83f582	1.0309298
104	0x3f5aa3e0	0.85406303
105	0xbe376740	-0.1791048
106	0x3ec07a98	0.37593532
107	0xbee359f8	-0.44404578
108	0x3d311e90	0.043242037
109	0xbd02d2c7	-0.031939294
110	0xbe170d16	-0.14751086
111	0x3e055d4e	0.13023874
112	0xbd9d761f	-0.076885454
113	0xbee0f3fa	-0.4393614
114	0xbe933e55	-0.28758493
115	0x3f1596ab	0.58433026
116	0x3d7c6d60	0.061627746
117	0xbf22c55e	-0.6358241
118	0xbe4604f9	-0.19337834
119	0xbe21c7be	-0.15798852
120	0x3df32062	0.11871411
121	0xbdacd185	-0.084384
122	0x3f920307	1.1407174
123	0x3f49b240	0.7878761
124	0xbe34ebae	-0.1766803
125	0xbddf9be3	-0.10918405
126	0xbee83b1a	-0.4535759
127	0xbf2add64	-0.66744065
128	0x3cb405f7	0.0219755
129	0x393ecc94	0.00018196023
130	0xbfb6c39b	-1.4278444
131	0x3ec9c784	0.3941003
132	0xbe972edc	-0.29527938
133	0x3f81e12a	1.014684
134	0x3e21e338	0.15809333
135	0x3e5cf03b	0.21576016
136	0xbea7851a	-0.32718736
137	0xbda028dd	-0.07820294
138	0xbc78500a	-0.015155802
139	0xbc121e84	-0.008918408
140	0x3f577891	0.84168345
141	0xbc4c5963	-0.012472483
142	0x3d802e81	0.0625887
143	0x3f24ec15	0.6442273
144	0xbee58ab5	-0.44832388
145	0xbcd0356d	-0.0254161
146	0xbd740b55	-0.05958112
147	0x3e59b052	0.21258667
148	0x3d002638	0.03128645
149	0x3c8321bc	0.016007297
150	0xbfc19c72	-1.5125868
151	0x3efafe33	0.49022064
152	0xbf7b96c5	-0.9827693
153	0x3edab4b7	0.42716
154	0xbf0ffca6	-0.56244886
155	0x3e8081b7	0.25098965
156	0xbe4d41d6	-0.20044646
157	0xbccc8d9d	-0.02496987
158	0xbc620b47	-0.013796634
159	0x3c8d8f26	0.017280173
160	0xbf7cfbea	-0.9882189
161	0x3eb3e8a6	0.35138434
162	0x3ef72d98	0.48276973
163	0xbe5888e7	-0.21145974
164	0x3cc34e7a	0.023841131
165	0x3e2c0965	0.16800459
166	0x3ef5d0e2	0.48010927
167	0xbe927e7b	-0.28612122
168	0xbd38045b	-0.04492603
169	0xbc205e21	-0.009788067
170	0x3eaebd12	0.34128624
171	0x3ec6d4b8	0.38834167
172	0xbd359e90	-0.04434067
173	0x3f093447	0.53595394
174	0x3ec24d53	0.3794962
175	0xbdfd033c	-0.123541325
176	0x3e957a80	0.29195023
177	0xbd429daf	-0.04751366
178	0x3d0783fb	0.03308485
179	0xbd23845c	-0.03992115
180	0x3fad0fc0	1.3520432
181	0xbfce22b0	-1.6104336
182	0xbee3d26e	-0.44496483
183	0xbf9e7cc9	-1.2381831
184	0xbe93ef4f	-0.28893515
185	0x3ee85111	0.4537435
186	0x3df9af2d	0.12191615
187	0x3ee82695	0.45341936
188	0x3e1d2842	0.15347388
189	0xba1df496	-0.0006025521
190	0x3c9aac39	0.01888095
191	0x3b6e6b44	0.0036379853
192	0x3e5203c7	0.20509253
193	0x3f131280	0.57450104
194	0x3ef9bd87	0.4877741
195	0x3f09fa56	0.5389761
196	0x3d8ca504	0.06867412
197	0xbe198afb	-0.14994423
198	0xbdbd3220	-0.09238076
199	0x3d4b3b43	0.049617063
200	0x3fb56d78	1.4174032
201	0x3dd570aa	0.104218796
202	0x3f22d08d	0.63599473
203	0xbf025d19	-0.50923306
204	0x3ec4ef96	0.3846404
205	0x3e039c40	0.12852573
206	0x3ee00068	0.4375031
207	0xbf4ea9cb	-0.80727834
208	0xbc483dc0	-0.012221754
209	0x3cb915ad	0.022593344
210	0x3f7297ea	0.9476305
211	0xbe890c56	-0.26767224
212	0xbe80bfe0	-0.2514639
213	0x3e2a11fd	0.16608424
214	0xbe4db5eb	-0.20088927
215	0x3dabd784	0.08390716
216	0xbf73b2dd	-0.951948
217	0x3eacd232	0.33754116
218	0xbd9100b0	-0.07080209
219	0x3d0a7a88	0.03380826
220	0xbee8cd83	-0.45469293
221	0x3ef1def9	0.47240427
222	0xbe7dad85	-0.24773224
223	0x3ee8ccb2	0.4546867
224	0x3ef5837e	0.47951883
225	0xbea36f9b	-0.31921086
226	0xbf1a2878	-0.60218
227	0xbe267503	-0.16255574
228	0x3e4bec2b	0.1991431
229	0xbdaa2768	-0.083082974
230	0xbf04aca3	-0.5182592
231	0x3dc50bc0	0.09621382
232	0x3e81bbb2	0.25338513
233	0x3f1492ac	0.58036304
234	0x3d5acd74	0.05341859
235	0x3e94e982	0.29084402
236	0x3db2b339	0.0872559
237	0xbc6bd392	-0.014393704
238	0x3e0859a5	0.13315447
239	0xbdd2ac93	-0.10286822
240	0x3f2e8e12	0.6818553
241	0xbdbb74c0	-0.09153128
242	0x3f16abaa	0.5885569
243	0xbe46381f	-0.19357346
244	0x3e46c106	0.1940957
245	0x3e6b8ab1	0.23002125
246	0xbe7bd196	-0.2459167
247	0x3db8eab6	0.090291426
248	0xbcaee958	-0.021351501
249	0x3bfa7d87	0.0076443586
250	0xbfe54661	-1.7912103
251	0xbf2112c8	-0.6291928
252	0xbe116899	-0.14200057
253	0x3eef6a21	0.46760657
254	0xbf1adf6e	-0.60497177
255	0xbb697ac2	-0.0035626148

fc1.bias f4 [256]
0	0xbdaf3ffb	-0.08557125
1	0xbeb83a6b	-0.3598207
2	0x3f01835b	0.5059106
3	0x3f22f74c	0.63658595
4	0x3e1d7fdb	0.15380804
5	0x3e811e9a	0.2521866
6	0x3e03208e	0.12805387
7	0xbdadc778	-0.08485311
8	0xbcc5084f	-0.024051813
9	0x3d68d317	0.056841936
10	0xbe5235eb	-0.2052838
11	0xbf10d91a	-0.5658127
12	0x3d18086c	0.037117407
13	0x3f13d0ad	0.5774029
14	0xbd0bd92a	-0.03414265
15	0x3ef5bba9	0.47994736
16	0xbe86cc18	-0.26327586
17	0x3e370d98	0.1787628
18	0xbe4a6d70	-0.1976831
19	0x3e484ead	0.19561262
20	0xbee7fbdc	-0.4530934
21	0x3d87c786	0.06629853
22	0x3e78e205	0.2430497
23	0x3eacb30f	0.3373036
24	0x3d46dc99	0.048550222
25	0xbd71525d	-0.05891644
26	0xbe2b8ce5	-0.16752966
27	0x3cda3bac	0.026639782
28	0x3eaed0b4	0.34143603
29	0x3ea8aa38	0.32942367
30	0x3e43b317	0.19111286
31	0x3de24f69	0.110503025
32	0xbdfd2c4b	-0.12361964
33	0xbe4ef753	-0.20211534
34	0x3bf74e8e	0.0075472062
35	0xbd995a23	-0.07487895
36	0xbc219401	-0.009861947
37	0x3d0e3890	0.03472191
38	0x3e217dcd	0.15770645
39	0xbeaef0bd	-0.34168044
40	0xbd076af8	-0.033060998
41	0xbdfbc1c2	-0.12292816
42	0x3e49ec4c	0.19719046
43	0x3eb57cbc	0.35446727
44	0x3e9a8fe5	0.30187908
45	0xbd752e70	-0.05985874
46	0x3efc435b	0.49270138
47	0x3dd8b65d	0.10581658
48	0xbef56002	-0.4792481
49	0xbeca07a2	-0.39458948
50	0xbeaed609	-0.3414767
51	0xbef67c49	-0.48141697
52	0x3e2c85cf	0.16847919
53	0xbe410df3	-0.18852977
54	0x3ea2d23f	0.3180103
55	0x3ef3fc6f	0.4765353
56	0x3e98654c	0.29764783
57	0x3d1311a3	0.03590549
58	0x3e71f486	0.23628435
59	0xbef99a3d	-0.48750487
60	0xbf02a9c4	-0.5104029
61	0x3ef2e041	0.47436717
62	0x3e869967	0.26288912
63	0xbe1ae69f	-0.15127037
64	0x3bce0aae	0.006287894
65	0xbd4f36eb	-0.050589483
66	0xbed9673d	-0.42461577
67	0xbeebdc69	-0.46066597
68	0x3e4d1083	0.2002583
69	0xbd15deb1	-0.03658933
70	0x3e784c6b	0.24247901
71	0x3d2b68fc	0.041848168
72	0xbe21c3e1	-0.15797378
73	0x3ef2fda7	0.47459146
74	0xbf122a68	-0.57095957
75	0xbe8cc8d0	-0.27496958
76	0xbe6d5adc	-0.23179191
77	0xbedcc669	-0.43120125
78	0xbe9d6ccc	-0.30747068
79	0xbe517aef	-0.20457052
80	0xbd0e3501	-0.034718517
81	0x3ecdcce1	0.40195373
82	0xbea8bb41	-0.32955363
83	0x3e9f73aa	0.31142932
84	0xbede2d71	-0.43394044
85	0xbecbdda7	-0.39817545
86	0x3e9c6411	0.30545095
87	0xbb948b5f	-0.004533216
88	0x3d9325d1	0.07184947
89	0x3e237ce7	0.15965615
90	0xbe5c20a4	-0.21496826
91	0x3f0882c5	0.5332454
92	0xbe786583	-0.24257474
93	0x3cfad4ec	0.030619107
94	0xbeac5ce3	-0.33664617
95	0xbe7683ca	-0.24073711
96	0xbef5b829	-0.47992066
97	0xbec56acb	-0.3855804
98	0x3f09af53	0.5378315
99	0xbe6afa1c	-0.22946972
100	0xbddffd02	-0.10936929
101	0xbd0ec6e8	-0.03485766
102	0x3ee329be	0.44367784
103	0x3e6e0140	0.23242664
104	0x3e166321	0.14686252
105	0x3eb43143	0.35193834
106	0x3e8306a5	0.25591007
107	0xbd5312f2	-0.05153174
108	0x3ea05c31	0.31320336
109	0xbd64dd4d	-0.05587511
110	0x3d8e1344	0.069372684
111	0xbdc4b446	-0.09604697
112	0x3eebfcaa	0.46091205
113	0x3e365a4d	0.17807885
114	0xbdb41083	-0.08792212
115	0xbc2fd1c7	-0.010731167
116	0x3e2bcd89	0.16777624
117	0x3ef5a2af	0.4797568
118	0xbb245b96	-0.0025079004
119	0xbdb6fab0	-0.089345336
120	0x3eb3220c	0.34986913
121	0xbc9b8fd0	-0.018989474
122	0xbec3fa4a	-0.38276893
123	0x3e568f32	0.20953062
124	0xbe1683c8	-0.14698708
125	0x3e9ad613	0.3024145
126	0x3e4c853b	0.19972698
127	0x3e754b7c	0.23954576
128	0xbd064fce	-0.03279095
129	0xbefc14a1	-0.4923449
130	0x3ebed06d	0.3726839
131	0xbe9f83db	-0.31155285
132	0xbbd5061e	-0.0065009734
133	0x3ed39167	0.4132187
134	0x3d1783c5	0.0369909
135	0x3eee5194	0.46546614
136	0x3e0ad050	0.13556027
137	0xbe13dc2d	-0.14439459
138	0x3e5a6946	0.21329221
139	0xbd7c9913	-0.06166942
140	0xbecce050	-0.40014887
141	0xbe0c276f	-0.13686918
142	0xbceec6d2	-0.02914754
143	0x3e7dba00	0.24777985
144	0xbd405816	-0.046959005
145	0xbe65380b	-0.2238466
146	0x3db7c997	0.08973997
147	0x3beb1d44	0.0071751196
148	0xbe7929e9	-0.24332394
149	0xbe3afe03	-0.1826096
150	0x3e9f7f3a	0.31151754
151	0x3ebc4da1	0.36777976
152	0xbda1d7f4	-0.07902518
153	0xbde2d1d9	-0.110751815
154	0xbe0d0267	-0.13770448
155	0xbe4fb3d8	-0.20283449
156	0xbef266f1	-0.47344163
157	0xbe54d873	-0.20785694
158	0x3efdd30b	0.49575076
159	0xbe6155bd	-0.22005363
160	0x3e8cc578	0.27494407
161	0x3d1181ad	0.03552406
162	0xbf073b56	-0.52824914
163	0xbe8c43e5	-0.2739555
164	0xbf2ab258	-0.6667838
165	0x3e1b7408	0.15180981
166	0x3dd754c5	0.105142154
167	0x3e8d4ad7	0.2759616
168	0x3ec449d4	0.38337576
169	0x3e1cf82f	0.1532905
170	0xbe82033a	-0.25393087
171	0x3e0c00ed	0.13672228
172	0x3e83374d	0.2562813
173	0x3ea817af	0.3283057
174	0x3db02509	0.08600814
175	0x3da2ff0b	0.07958802
176	0x3eaa89f7	0.33308384
177	0x3ea2cd13	0.31797084
178	0xbf039083	-0.5139238
179	0xbddddfe0	-0.108337164
180	0x3d7d337a	0.06181667
181	0x3b19f9d9	0.0023494868
182	0x3da6e39c	0.08148882
183	0xbecfa0a0	-0.40552235
184	0x3eb1be61	0.3471556
185	0xbf134d72	-0.5754005
186	0xbee657c4	-0.44988835
187	0xbc9be5a0	-0.019030392
188	0xbe6a7863	-0.22897486
189	0x3e89bc9d	0.26901713
190	0x3cdf4f6c	0.027259551
191	0x3db50886	0.08839516
192	0x3eb4a4ac	0.35281885
193	0x3dd93e04	0.10607532
194	0x3ebe21c6	0.37135142
195	0x3dc4edce	0.0961567
196	0xbdff593a	-0.124681905
197	0xbf0d7d54	-0.5526936
198	0x3e98091d	0.29694453
199	0xbe189f86	-0.14904603
200	0xbd68b467	-0.05681267
201	0xbd629047	-0.055313375
202	0x3f0069a9	0.50161225
203	0xbedc2a2b	-0.43000922
204	0x3ed455b3	0.41471633
205	0x3e6da488	0.23207295
206	0x3e564d85	0.20928009
207	0x3e1d34d0	0.15352178
208	0xbe8a8868	-0.27057195
209	0xbcaba3a1	-0.020952048
210	0x3e4ee506	0.20204553
211	0x3e1c23a9	0.15247978
212	0x3ee10a8f	0.43953368
213	0xbd8d9b1f	-0.069143526
214	0x3e9d9ea8	0.30785108
215	0xbdddde3d	-0.10833404
216	0x3d1f2a1f	0.03885853
217	0x3e1cc7ad	0.15310545
218	0xbd882dc3	-0.06649353
219	0x3e988ac2	0.29793364
220	0xbdadb8bb	-0.084825
221	0xbe35eb4a	-0.17765537
222	0x3ea5a721	0.32354072
223	0xbcae1db3	-0.021254396
224	0x3d225793	0.0396343
225	0x3e8d0fec	0.2755121
226	0xbe02afc7	-0.12762366
227	0x3dc7d4e4	0.097574025
228	0xbe37eb3e	-0.17960832
229	0x3e9439fe	0.28950495
230	0xbbe9635c	-0.0071224403
231	0x3e1bad6b	0.15202872
232	0x3ebbf5e2	0.3671103
233	0x3eeb8186	0.45997256
234	0x3e160cd7	0.14653336
235	0xbf1ee3f1	-0.6206656
236	0x3ee419be	0.4455089
237	0x3d0b5010	0.0340119
238	0x3d8c535d	0.06851838
239	0xbe574f13	-0.21026258
240	0x3ea7c3e5	0.32766643
241	0xbece1a8d	-0.40254632
242	0x3ed91e5c	0.42405975
243	0x3e1cda73	0.15317707
244	0x3f487cd6	0.78315485
245	0x3e90e17b	0.28297028
246	0xbdba9009	-0.09109504
247	0x3db31b84	0.087454826
248	0xbe49aa8b	-0.19693963
249	0xbf1625a4	-0.58651185
250	0x3e87c818	0.26519847
251	0xbf189d2c	-0.59614825
252	0xbeb52e39	-0.35386828
253	0x3ec63429	0.3871167
254	0x3e9e7107	0.30945608
255	0xbd3754cd	-0.044758607

fc2.weight f4 [256, 256]
0	0xbec7363b	-0.38908562
1	0xbf3769d5	-0.7164586
2	0x3ee92c25	0.45541492
3	0x3e851d54	0.25998938
4	0xbe371197	-0.17877804
5	0x3d5dc1ac	0.054139778
6	0x3d55ebcc	0.052226827
7	0x3f0ac020	0.5419941
8	0xbe6ea1c1	-0.23303892
9	0x3efc5c68	0.4928925
10	0x3eb469f3	0.35237083
11	0xbe025d51	-0.1273091
12	0xbfcae9b9	-1.5852576
13	0xbd8d2c33	-0.06893196
14	0x3c717945	0.014738386
15	0xbef38ab5	-0.47566763
16	0xbeb0bb4c	-0.34517896
17	0xbf03bba5	-0.514582
18	0xbe18511f	-0.14874695
19	0xbe47508e	-0.19464323
20	0xbdd43821	-0.10362268
21	0x3f001c27	0.5004296
22	0x3d035997	0.03206786
23	0xbe9946ea	-0.29936916
24	0x3e846f1b	0.25866017
25	0x3f813fee	1.0097635
26	0xbf0ec630	-0.5577116
27	0xbed7f905	-0.42182174
28	0x3e624d7e	0.22099873
29	0x3e0a867b	0.13527863
30	0xbdae3ec3	-0.085080646
31	0x3eec7d33	0.4618927
32	0xbf0b2d5c	-0.5436609
33	0xbde836d0	-0.1133858
34	0x3ee498a4	0.44647706
35	0x3d9de217	0.07709139
36	0x3e5e6f71	0.21722199
37	0x3aea472d	0.0017873995
38	0x3d6ec4fb	0.058293324
39	0x3cdec674	0.02719424
40	0xbe0f3274	-0.1398409
41	0xbf34b6d4	-0.70591474
42	0x3f322bf9	0.69598347
43	0x3ec6c7fb	0.38824448
44	0x3e3844a8	0.1799494
45	0x3db98673	0.09058847
46	0xbc225062	-0.00990686
47	0x3eb559ba	0.35420018
48	0x3d3ca9ae	0.046060257
49	0xbd26e510	-0.040745795
50	0xbcf83077	-0.030296547
51	0x3d7a03ca	0.06103877
52	0x3e92050a	0.2851947
53	0x3e79cc6c	0.24394387
54	0xbefda9c2	-0.49543577
55	0x3b922cf0	0.0044609234
56	0x3d3267a4	0.04355587
57	0xbd876a57	-0.066120796
58	0xbeb3bf37	-0.35106823
59	0x3f1a4332	0.6025878
60	0x3ee77b44	0.45211232
61	0xbec9df68	-0.39428258
62	0x3e13199e	0.14365241
63	0xbeb416df	-0.351737
64	0x3e829d1b	0.25510487
65	0xbe604bdd	-0.2190394
66	0xbec6344a	-0.38711768
67	0x3f3310c9	0.6994749
68	0x3f2f7049	0.6853071
69	0xbe376e89	-0.1791326
70	0x3f2d9755	0.6780904
71	0xbf2f92f5	-0.68583614
72	0x3dc2263f	0.09479951
73	0xbe62fa5b	-0.22165816
74	0x3f19b151	0.6003619
75	0xbf0d0d1c	-0.5509813
76	0xbed63d12	-0.41843468
77	0xbfb0fa2a	-1.3826344
78	0xbead8001	-0.33886722
79	0xbf134dd8	-0.57540655
80	0xbf299790	-0.6624689
81	0x3ef6345f	0.4808683
82	0x3ca5afd2	0.02022544
83	0x3ddebcc0	0.10875845
84	0x3f86dabe	1.0535505
85	0x3ea905fe	0.33012384
86	0xbec2d63e	-0.3805408
87	0xbed2bdfb	-0.4116057
88	0xbe4890e5	-0.19586523
89	0x3e43933b	0.19099133
90	0xbe270206	-0.16309366
91	0xbefe2ba8	-0.49642682
92	0xbf192fb0	-0.5983839
93	0x3caaf3c0	0.020868182
94	0xbf443add	-0.7665232
95	0xbf2212c9	-0.63309914
96	0xbf305aa0	-0.6888828
97	0x3e1ea5ad	0.15492888
98	0x3e62c1a6	0.22144184
99	0xbef0989f	-0.4699144
100	0xbf45ba63	-0.7723753
101	0x3ea71983	0.3263665
102	0x3e82945e	0.2550382
103	0x3e4d2add	0.20035882
104	0x3f161974	0.5863259
105	0xbefb3677	-0.4906499
106	0x3eb4c5ad	0.35307065
107	0xbf9edbbc	-1.2410808
108	0x3eb66689	0.35625103
109	0xbdda4604	-0.10657886
110	0x3dd2062d	0.10255084
111	0x3ddae887	0.10688882
112	0xbe1a335d	-0.15058656
113	0x3e2e68eb	0.1703221
114	0x3e8ddd8f	0.27708098
115	0x3e5bbc7d	0.21458621
116	0xbefe965b	-0.49724087
117	0xbec7def1	-0.39037278
118	0xc0986cd8	-4.7632866
119	0xbf16cbfa	-0.58904994
120	0x3e19f256	0.1503385
121	0x3f10c8d9	0.5655647
122	0xbf88cf71	-1.0688306
123	0xbfb29149	-1.3950588
124	0xbf332932	-0.69984734
125	0x3e91ef36	0.28502816
126	0x3e0aca44	0.1355372
127	0xbe80f2a3	-0.25185117
128	0xbf1dacc3	-0.6159174
129	0x3ea89e45	0.3293325
130	0x3e71047e	0.2353687
131	0xbf612953	-0.8795368
132	0x3bc8a7d1	0.006123521
133	0xbeab7fa2	-0.33495814
134	0x3e01bd7c	0.12669939
135	0x3e4eb01a	0.20184365
136	0x3ebfe608	0.37480187
137	0x3f440eb5	0.7658494
138	0xbee5d79e	-0.44891065
139	0xbeea8ab8	-0.4580896
140	0x3f3e8ee2	0.7443677
141	0x3e18ca66	0.14920959
142	0xbf2bae0c	-0.6706245
143	0xbcaf8735	-0.021426776
144	0xbc0b0f41	-0.0084875235
145	0x3e001721	0.12508823
146	0x3e97e60d	0.29667702
147	0xc01f9fa2	-2.4941182
148	0xbf1d0ff9	-0.613525
149	0x3fab53c1	1.3384935
150	0x3e30dfed	0.17272921
151	0x3eb5fbdc	0.35543716
152	0x3f50fd5c	0.81636596
153	0x3f0efa68	0.5585084
154	0xbf7b384f	-0.98132795
155	0xbed85a32	-0.42256314
156	0xbf6d3326	-0.9265617
157	0x3e0bfe3f	0.13671206
158	0x3ecb2b17	0.39681312
159	0x3e21b6a4	0.15792328
160	0xbeee413d	-0.46534148
161	0xbede1575	-0.43375745
162	0x3f2bedd1	0.67159754
163	0xbf5d6d59	-0.86494976
164	0x3e3fc1b4	0.18726236
165	0xbeeb8cf3	-0.46005973
166	0xbecf9475	-0.4054295
167	0xbe8aca47	-0.2710745
168	0xbe45fc0f	-0.19334434
169	0x3e8cd5d9	0.27506903
170	0xbfc24eb1	-1.5180265
171	0x3e87a82c	0.26495492
172	0x3e83fedb	0.25780377
173	0x3edc0733	0.42974243
174	0x3e1416fe	0.14461896
175	0x3dc7ea6d	0.0976151
176	0xbec0a584	-0.37626278
177	0xbbee7b71	-0.007277899
178	0x3edd2c69	0.43197945
179	0x3f283f75	0.6572183
180	0x3e73fb0d	0.23826237
181	0xbe63be6d	-0.2224061
182	0x3e9b77d9	0.30364874
183	0xbe010532	-0.12599638
184	0xbe7003f8	-0.23439014
185	0x3fca1ce3	1.5790066
186	0xbde0bd59	-0.10973615
187	0x3df72a64	0.12068632
188	0xbeb42c50	-0.35190058
189	0xbf290a94	-0.66031766
190	0x3f24dbdc	0.6439798
191	0x3dbcd796	0.09220807
192	0x3e8c91a2	0.2745486
193	0x3ea110a7	0.31458017
194	0x3e89f96a	0.269481
195	0x3f0f2f19	0.5593124
196	0xbf805705	-1.0026556
197	0xbed6490b	-0.41852602
198	0x3e3efb42	0.18650535
199	0x3d1dd3dd	0.038532127
200	0x3eae113c	0.33997524
201	0x3e8112c5	0.25209633
202	0xbece20d5	-0.40259424
203	0xbe8f227c	-0.27955997
204	0x3f225cc7	0.63422817
205	0x3ef4183b	0.47674736
206	0x3eee92f0	0.4659648
207	0x3e4ad297	0.19806896
208	0xbe800854	-0.25006354
209	0x3f449859	0.76794964
210	0x3d11afb6	0.03556796
211	0xbd70b361	-0.05876482
212	0xbd7f9f97	-0.062408056
213	0xbeef9c52	-0.4679895
214	0x3f0319f3	0.5121147
215	0xbf4ff2b8	-0.81229734
216	0x3d99b488	0.07505137
217	0xbf6294bc	-0.885082
218	0x3ed5aede	0.41734976
219	0x3f26d1bc	0.6516378
220	0x3e41ced9	0.18926562
221	0xbf250d4b	-0.6447341
222	0x3db3328f	0.08749878
223	0xbe0d562f	-0.13802408
224	0x3e022ea9	0.12713112
225	0xbe850f1d	-0.25988093
226	0x3ee7ee6c	0.4529909
227	0x3e9b09ee	0.30281013
228	0x3ddf7fce	0.10913049
229	0xbf423a17	-0.7586989
230	0x3f136843	0.57580966
231	0xbe59016d	-0.2119195
232	0x3e273cdb	0.16331808
233	0xbe854c84	-0.2603494
234	0x3e8b1e70	0.2717166
235	0xbd9a0a10	-0.075214505
236	0x3e86b3b1	0.2630897
237	0x3ea0274e	0.31279987
238	0x3f4e9d87	0.8070912
239	0x3f018972	0.5060035
240	0xbecc2218	-0.3986976
241	0x3c82ca76	0.015965682
242	0xbf098966	-0.5372528
243	0x3cc0e039	0.023544418
244	0xbcb7276e	-0.022357669
245	0xbefcdeb5	-0.49388662
246	0xbd9e8581	-0.077403076
247	0xbdb887b9	-0.09010262
248	0xbd90a542	-0.070627704
249	0xbd95e551	-0.07319129
250	0xbe20d76b	-0.15707175
251	0x3ed7933f	0.42104527
252	0x3e50dea3	0.20397429
253	0xbe8448ec	-0.25836885
254	0xbe9bfd0f	-0.30466506
255	0x3f073b4f	0.5282487

fc2.bias f4 [256]
0	0x3ebf3641	0.3734608
1	0x3e849e0e	0.25901836
2	0x3e8fa3fa	0.28054792
3	0x3d10b312	0.035327025
4	0x3e5fe393	0.21864156
5	0x3e88bcd6	0.2670657
6	0x3e305534	0.17220002
7	0xbdc03faa	-0.09387143
8	0x3e868694	0.2627455
9	0x3e4db89c	0.20089954
10	0xbd463e6e	-0.04839938
11	0xb9809fc4	-0.00024533097
12	0x3e6c9baa	0.23106256
13	0xbd854785	-0.06507782
14	0xb977127a	-0.00023562639
15	0x3cbdb261	0.023156347
16	0xbd95577c	-0.07292077
17	0x3bc44fe5	0.0059909695
18	0xbd2833f8	-0.041065186
19	0xbd452a6b	-0.048136156
20	0x3d727fe5	0.059204
21	0x3e34221d	0.17591138
22	0x3de9e893	0.11421313
23	0xbd19c8f8	-0.037545174
24	0x3e3be746	0.18349943
25	0xbd5704e9	-0.052494917
26	0x3d8ad139	0.06778187
27	0xbd9e5c17	-0.077324085
28	0xbc2bf9be	-0.010496555
29	0x3e55e51b	0.20888178
30	0x3ec0be94	0.376454
31	0x3ea5cb96	0.32381886
32	0xbd17d74d	-0.03707056
33	0xbc90de03	-0.017683988
34	0x3c29e8b6	0.010370424
35	0x3eaeba9c	0.34126747
36	0xbd10b3f3	-0.035327863
37	0x3e20da94	0.15708381
38	0x3e0d4bef	0.13798498
39	0x3e7a4d1f	0.24443482
40	0x3e8a7e31	0.270494
41	0x3e130247	0.14356337
42	0x3e008524	0.12550789
43	0x3e04885c	0.12942642
44	0x3e914909	0.28376034
45	0x3d5bae46	0.053632997
46	0x3eb47db5	0.35252157
47	0x3e672ae5	0.22574957
48	0xbd6449fd	-0.055734623
49	0x3d662a77	0.05619284
50	0x3dc057fb	0.09391781
51	0x3eb44826	0.35211295
52	0x3d1a7540	0.037709475
53	0xbd8414b5	-0.06449262
54	0x3e3b000a	0.18261734
55	0x3e626fca	0.22112957
56	0x3de38a39	0.11110348
57	0x3d798f6b	0.06092779
58	0x3ec34cc6	0.3814451
59	0x3e26a949	0.16275515
60	0xbc1e0634	-0.009645034
61	0x3e3b3d23	0.1828504
62	0xbd248dc9	-0.04017428
63	0x3dba14f2	0.09086026
64	0x3d77b80f	0.060478266
65	0x3d4d4474	0.05011411
66	0xbd50e59a	-0.051000215
67	0x3e3a83e8	0.1821438
68	0x3e376b4b	0.17912023
69	0x3ebde584	0.3708917
70	0xbc3647bf	-0.011125504
71	0xbc80f8ed	-0.015743697
72	0xbc847827	-0.016170574
73	0xbd19a924	-0.03751482
74	0x3ed47f65	0.41503444
75	0x3e064ef8	0.13116062
76	0x3e710df4	0.23540479
77	0xbba95797	-0.005167912
78	0xbc044b8a	-0.008074651
79	0xbe1873cd	-0.14887924
80	0x3e375c8f	0.17906402
81	0xbe341e66	-0.17589721
82	0x3cc047c7	0.023471726
83	0x3e7c488b	0.24637048
84	0x3d0b07e8	0.033943087
85	0x3e34ea21	0.17667438
86	0x3d3e54ae	0.046467476
87	0x3dc14451	0.094368584
88	0x3e774f1d	0.24151273
89	0x3ca639af	0.020291178
90	0x3e4131d2	0.18866661
91	0x3e7ec05c	0.24878067
92	0xbc6f4c9c	-0.014605667
93	0x3df8bcbc	0.12145373
94	0x3cf9f66a	0.030513007
95	0xbca1102e	-0.019661035
96	0x3e81416d	0.25245228
97	0x3ccd6e65	0.025077054
98	0xbe1ec37c	-0.15504259
99	0x3e729de5	0.23693044
100	0xbd6b77fb	-0.05748747
101	0xbd72d403	-0.05928422
102	0xbc277c8c	-0.010222565
103	0x3e926e24	0.28599656
104	0x3de9924c	0.11404857
105	0xbc330564	-0.010926578
106	0x3da35be0	0.07976508
107	0x3e419c14	0.18907195
108	0x3e092a00	0.13394928
109	0xbbab162c	-0.005221149
110	0xbd4ded93	-0.050275397
111	0xbe01842c	-0.12648076
112	0x3e6beb44	0.23038965
113	0xbd8192c9	-0.06326825
114	0x3e26488f	0.16238616
115	0x3e5d773c	0.21627516
116	0x3cf409e7	0.029789878
117	0xbcbaa28b	-0.022782585
118	0x3e73f8bf	0.23825358
119	0x3e1e7cd3	0.15477304
120	0xbdda7f9c	-0.10668871
121	0xbc303af5	-0.010756244
122	0x3e295823	0.16537528
123	0x3e96208a	0.293217
124	0x3e997174	0.2996937
125	0x3e67b2ca	0.22626796
126	0x3deaff12	0.11474432
127	0x3e8da365	0.27663723
128	0x3c1a2e32	0.009410428
129	0x3d578195	0.052613813
130	0xbd16546d	-0.03670161
131	0x3c064505	0.0081951665
132	0x3d7b19b2	0.0613038
133	0x3eaa8a39	0.3330858
134	0xbdc77664	-0.09739378
135	0x3cf8bb89	0.030362861
136	0x3e57638a	0.21034065
137	0xbd1c945f	-0.038227435
138	0x3b2e82c2	0.002662823
139	0x3e282d7e	0.16423604
140	0xbc068d90	-0.008212462
141	0x3ecb79e7	0.39741442
142	0x3ebd60b1	0.36987832
143	0x3ea75f03	0.32689676
144	0x3cce655d	0.025194818
145	0x3e2cd43f	0.1687784
146	0x3cbb3f5f	0.022857366
147	0x3eb2b4d8	0.34903598
148	0x3e704a81	0.23465921
149	0xbd5237b5	-0.051322658
150	0x3e7c307f	0.24627875
151	0xbda563e7	-0.080756955
152	0xbcf1bb5a	-0.029508281
153	0x3d8df480	0.069314
154	0x3e28baf4	0.16477567
155	0xbe30a905	-0.17251976
156	0xbc2ee507	-0.010674722
157	0xbd72bdd5	-0.05926307
158	0xbdcd4443	-0.100227855
159	0x3da38825	0.07984952
160	0x3b5454e3	0.003239923
161	0x3e780049	0.24218859
162	0x3cd1d065	0.025612066
163	0x3bb49070	0.0055103824
164	0x3c900eb7	0.017585142
165	0xbd0c1e23	-0.034208428
166	0x3d87e4f3	0.066354655
167	0x3cdc4811	0.026889833
168	0x3e20b4d8	0.15693986
169	0xbd5d934e	-0.05409556
170	0x3e50323d	0.20331664
171	0x3e15f64c	0.14644736
172	0x3d1f2e69	0.03886262
173	0x3e28c74c	0.16482276
174	0xbe2656f3	-0.16244106
175	0x3cd486ca	0.025943179
176	0x3e0fa39a	0.14027253
177	0xbe156291	-0.14588381
178	0x3dbf5fb4	0.09344426
179	0x3e1f1b90	0.15537858
180	0x3e638988	0.22220433
181	0x3e4c3e40	0.19945621
182	0x3e3ddb0e	0.18540594
183	0x3e7a4c40	0.2444315
184	0x3cb126bb	0.021624913
185	0x3e3108e7	0.17288552
186	0xbe519ae2	-0.2046924
187	0x3ccb1e27	0.024794651
188	0x3e7065e4	0.23476368
189	0x3e2246a0	0.15847254
190	0xbd0934f7	-0.033497777
191	0x3c5e1a5c	0.013556089
192	0x3e118426	0.14210567
193	0x3e506853	0.20352297
194	0x3ea43d34	0.32077944
195	0x3d269bc6	0.0406759
196	0x3e932f62	0.28747088
197	0x3e3533ed	0.1769559
198	0x3c7c775a	0.015409315
199	0x3e8b4bdc	0.27206314
200	0x3e2115a5	0.15730913
201	0x3e7806a6	0.24221286
202	0x3924c832	0.00015714837
203	0x3e7e61aa	0.24841943
204	0x3ca45968	0.020062163
205	0x3ea12509	0.31473568
206	0x3e02c424	0.12770134
207	0x3e1b7281	0.15180399
208	0xbe1ce335	-0.15321048
209	0x3e9acc2b	0.30233893
210	0xbcd40d86	-0.025885355
211	0x3e09095a	0.13382474
212	0x3db9f9d1	0.09080852
213	0x3e0721a2	0.13196424
214	0x3c25b8d3	0.010114866
215	0x3d98dd27	0.074640565
216	0x3ce36e3a	0.027762521
217	0x3e4ef2cc	0.20209807
218	0xbd9f3801	-0.07774354
219	0x3e432a16	0.19059023
220	0x3df9cd61	0.12197376
221	0x3d4543a7	0.04816022
222	0xbd5da12a	-0.054108776
223	0xbd1f44a1	-0.03888381
224	0x3d8eeb90	0.06978524
225	0xbb91a1a3	-0.0044443174
226	0xbbe5e185	-0.0070154094
227	0x3e8c0e34	0.27354586
228	0x3d2b5390	0.04182774
229	0x3d0ea114	0.034821585
230	0xbced1f84	-0.028945692
231	0xbd576966	-0.05259075
232	0xbd4c9f5d	-0.04995667
233	0x3b9e3c55	0.0048289695
234	0x3cc0fee1	0.023559036
235	0xbc202030	-0.009773299
236	0x3eb302e3	0.3496314
237	0xbde6c522	-0.11268069
238	0x3e043955	0.12912495
239	0x3ced02da	0.028932024
240	0x3e55a018	0.20861852
241	0xbcfd3477	-0.030908806
242	0x3dd5e7e7	0.104446225
243	0x3db46b6a	0.0880955
244	0x3e883a22	0.26606852
245	0x3e107cf6	0.14110169
246	0x3ea9f55e	0.33195013
247	0x3e6a7c51	0.22898985
248	0x3e5e3659	0.2170042
249	0x3c9548b1	0.018223139
250	0x3e8102ea	0.25197536
251	0xbe26b875	-0.16281302
252	0x3eb2c8de	0.34918875
253	0xbe2f4774	-0.17117101
254	0x3e375f1d	0.17907377
255	0x3e4f22ce	0.2022812

fc3.weight f4 [1, 256]
0	0xbf01d60b	-0.5071723
1	0x3ea869ec	0.32893312
2	0x3ea0f28d	0.31435052
3	0x3c805e7f	0.01567006
4	0x3d8b2ef2	0.067960635
5	0xbe7fff2c	-0.24999684
6	0x3e8553ef	0.260406
7	0xbec970f7	-0.39343998
8	0xbdad35f7	-0.084575586
9	0xbdca1ca7	-0.09868746
10	0x3d499ccc	0.0492218
11	0x3d70509b	0.05867062
12	0xbddaa352	-0.10675682
13	0xbd1363f7	-0.035984006
14	0x3c2a0d9b	0.01037922
15	0xbb324a29	-0.0027204847
16	0x3c9ec11b	0.01937919
17	0x3d368a3d	0.044565428
18	0xbf6400b0	-0.8906355
19	0x3f30f643	0.69125766
20	0x3ed3eb72	0.41390568
21	0xbf0e783a	-0.556522
22	0x3e6030cd	0.21893616
23	0xbbe053f1	-0.006845944
24	0xbf136b22	-0.57585347
25	0x3e28aa71	0.16471268
26	0x3a49acba	0.000769328
27	0xbbd17d26	-0.0063930927
28	0x3c764003	0.01502991
29	0xbdd2fe35	-0.103023924
30	0x3ec02e31	0.3753524
31	0x3ec04b15	0.37557283
32	0xbcba4a8f	-0.02274063
33	0xbc085c11	-0.008322732
34	0xbf545dd6	-0.8295568
35	0xbe038b80	-0.12846184
36	0x3e9d463f	0.30717656
37	0xbbff5bab	-0.00779291
38	0xbba8f2f1	-0.005155914
39	0xbe71b015	-0.23602326
40	0xbee4868b	-0.44633898
41	0xbf5a1ff9	-0.85205036
42	0x3e7d5ba1	0.24741985
43	0xbee52c36	-0.44760293
44	0x3d50c239	0.050966475
45	0x3e8b597e	0.27216715
46	0x3eb873ee	0.36025947
47	0x3e070950	0.13187146
48	0x3f74dc82	0.9564897
49	0x3e8def14	0.27721465
50	0xbf5bd675	-0.8587411
51	0xbe8035d3	-0.25041065
52	0x3d1c3249	0.038133893
53	0x3bb12016	0.0054054363
54	0x3eb4249e	0.35184187
55	0x3e9e92d4	0.30971396
56	0xbf544335	-0.8291505
57	0x3e90b8c0	0.28265953
58	0xbea3cb2a	-0.3199094
59	0xbded9a74	-0.11601725
60	0xbf0fbbfc	-0.56146216
61	0x3ed1c57e	0.40970987
62	0xbfc7c544	-1.5607076
63	0xbf651101	-0.8947907
64	0x3e9b0df2	0.30284077
65	0x3def9cfb	0.116998635
66	0xbbadc617	-0.005303155
67	0x3e8f7024	0.28015244
68	0x3d026acc	0.03184013
69	0x3ef63748	0.4808905
70	0x3c131e33	0.008979368
71	0x3cf3eee0	0.02977699
72	0x3e434472	0.19069079
73	0x3e5ea586	0.2174283
74	0xbf6e50fa	-0.9309231
75	0xbdf8f195	-0.12155453
76	0xbe6d7362	-0.23188546
77	0xbf62d1b8	-0.88601255
78	0x3c751e73	0.014960873
79	0x3f00c828	0.50305414
80	0xbf069a25	-0.52578956
81	0x3ef55782	0.47918326
82	0x3ef147f9	0.47125223
83	0xbe836a7e	-0.25667185
84	0x3dd13898	0.102158725
85	0xbdb0baac	-0.08629355
86	0xbf83b605	-1.0289923
87	0xbf360597	-0.7110228
88	0xbe4f33bf	-0.20234583
89	0xbf770bbf	-0.965023
90	0xbd026d79	-0.031842683
91	0xbf2e321b	-0.68045205
92	0x3d1968ca	0.03745345
93	0x3e848afe	0.25887293
94	0xbd07028d	-0.032961417
95	0x3ef97758	0.48723865
96	0xbe4c0e03	-0.1992722
97	0x3f3ae868	0.73010874
98	0x3f50e956	0.8160604
99	0x3e2cfacf	0.16892551
100	0xbc54e9ae	-0.012995167
101	0xbf4a3f09	-0.79002434
102	0xbf7b83e3	-0.9824812
103	0xbea8848b	-0.32913622
104	0xbf5be869	-0.85901505
105	0x3d151a67	0.036402132
106	0x3e9c8132	0.30567318
107	0x3edfe7ea	0.43731624
108	0x3e722f51	0.23650862
109	0xbfc7f288	-1.562089
110	0x3e2ea46c	0.1705491
111	0xbe926882	-0.28595358
112	0xbe85cd30	-0.26133108
113	0xbea12d53	-0.31479892
114	0xbde7ff68	-0.11328012
115	0x3e847e1d	0.25877467
116	0x3d361b70	0.04445976
117	0x3e8a7822	0.2704478
118	0x3e9792c5	0.29604164
119	0x3e7b2cbd	0.24528785
120	0x3ecbaa74	0.39778483
121	0x3bb2e2a3	0.005459146
122	0x3e728bad	0.23686095
123	0xbf8374b1	-1.0269986
124	0x3e8e6018	0.2780769
125	0x3ec7dd5d	0.39036074
126	0xbf86b3e6	-1.0523651
127	0xbd9141cf	-0.0709263
128	0x3fe8858a	1.8165753
129	0x3ba9fa8e	0.005187339
130	0x3ba57f90	0.005050607
131	0xbf620f57	-0.88304657
132	0x3e6f8a03	0.23392491
133	0xbf0df3d1	-0.5545016
134	0xbf962788	-1.1730814
135	0xbeb3ea04	-0.35139477
136	0xbddd64cb	-0.1081024
137	0x3cfc0bf3	0.030767417
138	0xbc183e0e	-0.009292139
139	0xbf67c333	-0.90532225
140	0xbd0209d0	-0.03174764
141	0x3ece675f	0.4031324
142	0x3eb97308	0.36220574
143	0xbed2f98d	-0.41206017
144	0xb8fcf7a6	-0.000120624245
145	0x3ddf308a	0.1089793
146	0x3d304340	0.043032885
147	0xbdf1a87a	-0.117997125
148	0x3ef470d9	0.47742346
149	0x3d0836e4	0.033255473
150	0xbe0a319d	-0.13495488
151	0x3e90599e	0.28193372
152	0x3c3bc795	0.011461158
153	0x3ebbade7	0.36656114
154	0xbd5480f2	-0.051880784
155	0x3f785d71	0.9701758
156	0x3f760983	0.96108264
157	0xbf5d203f	-0.8637733
158	0x3ea9ee7f	0.3318977
159	0x3ec3376c	0.3812822
160	0x3cfdceec	0.030982457
161	0xbe78b885	-0.24289139
162	0x3d39ee99	0.04539356
163	0xbe033bfd	-0.12815852
164	0xbf49dd07	-0.78852886
165	0xbfa33a1d	-1.275211
166	0x3fee3043	1.8608478
167	0xbbd8fd0c	-0.0066219624
168	0xbe5c70bb	-0.21527378
169	0xbc0419aa	-0.008062759
170	0xbeb900cf	-0.3613343
171	0xbee18dec	-0.4405359
172	0xbe8398fc	-0.25702655
173	0xbe6891e7	-0.22711907
174	0xbf61d361	-0.88213164
175	0x3cf806f4	0.030276753
176	0x3e8b3bbd	0.27194014
177	0x3fce17c6	1.6101005
178	0x4044577d	3.0678399
179	0xbe0b439a	-0.13600007
180	0xbda1958e	-0.078898534
181	0xbe9ae3ba	-0.30251867
182	0x3e4edc0c	0.20201129
183	0x3eaa2bff	0.3323669
184	0x3c1fa810	0.009744659
185	0xbe9a2b9f	-0.30111405
186	0x3edac56b	0.42728743
187	0xbf55b63d	-0.834812
188	0xbe855f68	-0.26049352
189	0xbebc7a4f	-0.36812064
190	0xbd18f445	-0.03734233
191	0x3c831ea0	0.016005814
192	0xbea3dc6e	-0.32004112
193	0xbf15373f	-0.58287424
194	0x3ed01517	0.4064109
195	0xbf696bcf	-0.9118013
196	0xbf01f83f	-0.5076942
197	0xbe271e39	-0.16320123
198	0x3cef89fb	0.029240599
199	0xbe4fa4b2	-0.2027767
200	0xbec62a11	-0.3870397
201	0xbe9b094e	-0.30280536
202	0x3d4dee66	0.050276183
203	0xbd8c7db1	-0.06859911
204	0x3b1b48b5	0.002369446
205	0xbe31d2e0	-0.17365599
206	0x3e7887ed	0.24270602
207	0x3ea5dcf2	0.3239513
208	0x3f543fb2	0.8290969
209	0xbe62e8a1	-0.22159053
210	0x3c93deb7	0.018050535
211	0x3e0cf5c5	0.13765629
212	0x3e1a730e	0.15082952
213	0xbe50c5a0	-0.20387888
214	0x3b5f961a	0.0034116567
215	0xbe14d2a9	-0.14533485
216	0x3b6ee547	0.0036452578
217	0xbecc3d54	-0.3989054
218	0x3d213f96	0.03936728
219	0x3ebddca9	0.37082413
220	0xbf2c4d6c	-0.67305636
221	0xbf223f86	-0.6337818
222	0x3c8f717e	0.017510172
223	0x3c947374	0.018121459
224	0x3e999545	0.29996696
225	0x3d0ee83c	0.034889445
226	0x3b720003	0.0036926277
227	0xbe5726fd	-0.21010967
228	0x3d423d4d	0.047421742
229	0x3e80ea5c	0.25178802
230	0xbd46dc51	-0.048549954
231	0x3cd8b70a	0.026454467
232	0x3e2bda30	0.1678245
233	0x3ef03c05	0.4692079
234	0xbfcdc0fd	-1.607452
235	0xbe9dba0a	-0.30806
236	0x3ec6846d	0.38772908
237	0xbedd6987	-0.43244573
238	0xbf24eeb1	-0.64426714
239	0xbeb513fb	-0.35366806
240	0xbe81e4ce	-0.25369877
241	0x3e7617da	0.24032536
242	0xbf0b247a	-0.54352534
243	0x3bf66445	0.0075192773
244	0x3eb3a8a2	0.35089594
245	0x3ebe2444	0.37137043
246	0xbe0c3302	-0.13691333
247	0xbd0b2128	-0.033967167
248	0x3ea006c5	0.31255165
249	0xbba15397	-0.0049232948
250	0xbe06b392	-0.13154438
251	0xbf85ec58	-1.0462751
252	0xbf80a875	-1.0051409
253	0x3f47f079	0.7810131
254	0x3d140989	0.036141906
255	0xbe6ae0d0	-0.22937322
