Continuous/Soft_Actor_Critic_Pytorch/q2_model.pth (torch, 277663 bytes, 5 tensors)

fc1.weight f4 [256, 10]
000000 4b 5c 9a 3e 5b b7 0a 3f 3a 96 3e be 7d ce 98 3d
       0.3014854 0.5418603 -0.18611994 0.074612595
000010 be b3 2a 3f dc 0a 8e 3e e5 d1 e8 be 73 e8 86 bf
       0.66680515 0.2774266 -0.45472637 -1.0539688
000020 42 d6 4f bd 02 e1 e1 3d eb 13 0d 3f 73 be 9a 3e
       -0.05074144 0.11029245 0.5510852 0.30223426
000030 2b f0 d3 be 32 9c 90 3e 5a fd 3d 3f 7f 44 09 be
       -0.4139417 0.28244168 0.7421471 -0.13405035
000040 39 73 db bd 21 b7 b9 bd 61 be 59 bb 7f 1e 9b bd
       -0.10715336 -0.09068132 -0.0033225047 -0.07574176
000050 20 b0 35 3d 8a b4 00 3d cf 30 99 be 25 ce d2 3e
       0.04435742 0.031422175 -0.2992005 0.411729
000060 60 3d 85 3e 6b 2f a9 3f ab 7e fd be f3 79 bb be
       0.26023388 1.3217596 -0.49510702 -0.36616477
000070 71 18 68 bd 03 f6 d4 bd 5c 56 c9 bd d6 f2 83 3e
       -0.056663934 -0.103984855 -0.09830925 0.25771207
000080 18 91 7c 3f 46 94 cc bf dd 6a 93 be 92 47 51 be
       0.98658895 -1.598275 -0.28792468 -0.20437458
000090 e2 d5 0c 3e ff cc a5 bf 73 eb 1f 3c b3 9d 41 ba
       0.13753465 -1.2953185 0.009760725 -0.0007385865
0000a0 ee e4 0c bf 3f 7c 13 3d 9b 37 7b be 4a f2 7f 3d
       -0.5503682 0.036007162 -0.2453293 0.062486924
0000b0 0c 31 de 3e c1 cf bb 3e d0 8a d7 3d ad c9 9b 3c
       0.43396795 0.3668194 0.10524523 0.019017065
0000c0 be 77 40 bc c7 ce 8c bd 6a 81 16 3d b0 e9 33 3e
       -0.011747299 -0.06875377 0.036744513 0.17569613
0000d0 8d 9a f8 3d 00 50 c4 3d 10 94 e0 3f e7 80 50 3e
       0.12138853 0.09585571 1.7545185 0.20361672
0000e0 de 91 a4 be 73 e8 b8 3e 3a e6 df 3c a6 86 34 3e
       -0.32142538 0.36114845 0.02733146 0.1762949
0000f0 41 ca 0a bf 9f 14 ff bd 0a e2 10 bf f0 9e 9e be
       -0.54214865 -0.12455105 -0.5659491 -0.30980635
000100 95 e2 a5 3d 9e 99 40 bf e5 75 bc be 5f dc e0 3d
       0.08099858 -0.752344 -0.36808696 0.109795325
000110 6d 46 3a 3c ec 09 92 3c 4a 1d 95 bf df c8 7a be
       0.01136933 0.017826997 -1.1649563 -0.24490689
000120 b5 df 3e 3e 38 05 df 3e 23 c1 51 bf da c1 ae 3d
       0.18640025 0.4355867 -0.8193533 0.08533068
000130 e8 df aa bd ba 45 21 bd 86 1a 76 3c 2e 57 d0 bc
       -0.08343488 -0.039373137 0.015020972 -0.025432196
000140 ea c5 2b bf ab 7c 4a 3d 9d a5 a6 3e 5d 90 14 bf
       -0.6709887 0.0494353 0.32548228 -0.5803278
000150 83 57 c8 3c 57 f3 35 bf d2 e1 b2 be 33 d7 ad 3e
       0.024455791 -0.7107443 -0.34937912 0.33953246
000160 0e 08 74 bd b8 80 e6 3d 96 52 70 3e 56 5c 47 be
       -0.059577994 0.1125502 0.23469004 -0.19468817
000170 57 1c 36 3f 97 9f 0d 3e ac 73 d3 be 4f 6c e4 bd
       0.71136993 0.1383041 -0.41299188 -0.11153471
000180 9e 09 68 be 42 3d 0d 3c 7d a6 47 3e 65 cb 1c 3b
       -0.22659919 0.008620562 0.19497104 0.0023924944
000190 97 0c 07 bf 0d a2 38 bf b0 e4 8a 3d 55 e9 8e bf
       -0.52753586 -0.7212227 0.067819 -1.1164957
0001a0 61 37 a7 bc a4 54 fc bd a3 6d fe 3e 56 ac 2b be
       -0.020412149 -0.123208314 0.4969302 -0.1676496
0001b0 e9 d0 ee bc 30 12 1a 3c 49 95 34 3f a4 d3 18 bc
       -0.02915235 0.00940375 0.7054029 -0.009327803
0001c0 e6 17 24 bf 4a 87 1f be 2a f3 d4 3e 83 73 94 be
       -0.64098966 -0.15578952 0.4159177 -0.28994378
0001d0 42 90 b1 be 59 56 35 be 4d ba 65 bc 6e 71 00 3b
       -0.34680372 -0.1770872 -0.014021468 0.001959886
0001e0 ec b3 5d 3f 0d 82 19 bd 6f 29 87 bf f9 1d c8 be
       0.86602664 -0.03747754 -1.055952 -0.39085367
0001f0 1b d2 6f bf f1 1d 96 3d 42 96 4e 3d 6c a3 97 3d
       -0.9367997 0.073299296 0.050436266 0.07404217
000200 06 14 c1 3d 60 a0 b1 3b 56 c5 27 3e 48 41 66 bd
       0.09427647 0.0054207295 0.16383871 -0.0562146
000210 e5 9b 79 3f 4d d4 33 bf d0 2e 41 3f 66 5f 5c bf
       0.975035 -0.7024582 0.75462055 -0.86083066
000220 3b ba 1a 3e 58 d7 97 3d 36 04 ca 3d 87 44 cc bb
       0.15110104 0.074141204 0.098640844 -0.006233755
000230 33 f0 1d 3f 15 1c 2e bf bc 0f 51 3f 19 ff c1 be
       0.6169464 -0.680116 0.81664634 -0.37889937
000240 8e 54 30 3f 2b 83 c3 be 84 a4 6a 3e c7 db 7d 3e
       0.6887902 -0.3818601 0.2291432 0.2479087
000250 4a fc e9 bd 69 72 1e bd de c4 48 3f d1 70 1e bc
       -0.114250734 -0.03868333 0.78425395 -0.009670452
000260 6a 24 10 3f 49 a6 94 ba ef 4b 06 bf e0 92 d1 3e
       0.56305563 -0.0011341061 -0.52459615 0.4093237
000270 ec cb be bd 27 8b f8 3e 14 09 2e 3c b4 2d e1 bc
       -0.09316239 0.48543665 0.010622282 -0.027487613
000280 f5 99 c6 3e 67 ba af 3e 7f 56 88 3f 14 b5 62 bb
       0.38789335 0.343219 1.0651397 -0.0034592794
000290 7e c7 82 3e be af ad 3d 07 65 f8 3c b0 c6 ba be
       0.25542825 0.08480786 0.030321611 -0.36479712
0002a0 10 14 f3 3c 68 1f 81 3c 4b 31 49 be c0 b5 5e be
       0.029672652 0.015762046 -0.1964771 -0.2174902
0002b0 cd a4 26 bf 4b 82 c0 3f 4e 3e 0b 3e 61 67 a4 3e
       -0.65095216 1.5039762 0.13597986 0.32110122
0002c0 cc 6b b8 3d be 29 65 be 75 b3 3b 3b 57 88 73 3b
       0.090049356 -0.22379205 0.00286409 0.0037160122
0002d0 d7 0b f6 bd 91 32 8d 3b c1 e0 9c bf 09 d8 19 be
       -0.12013977 0.0043090065 -1.225609 -0.15023817
0002e0 35 28 df be 0f be 13 3d 47 ea 92 bd 6a 34 bf bc
       -0.43585363 0.036069926 -0.07173591 -0.023340423
0002f0 b5 82 36 bd 39 3e 05 bc 7e 95 b7 3e 8e 23 c3 be
       -0.044558246 -0.008132511 0.3585624 -0.38113064
000300 fc 1b d7 3e 80 1f 6f 3e c4 75 9e bf bd b7 52 bf
       0.42013538 0.2335186 -1.2379689 -0.8231161
000310 61 0f ff be c7 1f 0b bf b2 a2 a3 3d 49 57 00 3e
       -0.4981642 -0.54345363 0.07990016 0.12533297
000320 5a 26 2e 3f f9 9c 02 3f 01 78 21 be a1 9c 51 be
       0.6802727 0.5102077 -0.15768434 -0.20469905
000330 cb ed d0 be dd 34 b3 be 9c aa 6e bf f8 16 a9 be
       -0.40806422 -0.3500127 -0.9322908 -0.33025336
000340 f1 a7 a8 bb e7 79 66 3c 1d 4a a7 be c0 0d d2 bd
       -0.0051469733 0.01406715 -0.3267373 -0.10256529
000350 08 46 10 bf 9e dd 30 3e 6d 32 5b 3e 44 24 07 3e
       -0.5635686 0.1727204 0.21405955 0.13197428
000360 e9 69 3d be 3f f5 38 3e 97 9d d6 3c 04 75 90 3c
       -0.18497433 0.18062304 0.026198192 0.017633922
000370 ba 8b ea 3d 51 69 a4 3e 93 a9 75 bd ec 80 ad 3e
       0.11452432 0.321116 -0.05997617 0.33887422
000380 6a 99 36 be e8 2e 81 be 5f 85 c5 be 36 f1 46 3e
       -0.1783196 -0.252311 -0.38578317 0.19427952
000390 c7 8c 79 3e 89 6e a1 bc 2c 16 de be ea c1 24 3e
       0.24370109 -0.019706028 -0.4337629 0.16089597
0003a0 1d 26 96 3d 2c d6 2e 3e ac 69 98 be 8d 8a 9a be
       0.07331488 0.17073888 -0.2976812 -0.3018383
0003b0 b7 34 b8 bc 6e d7 75 bd 60 e0 2e bd 53 cd 3e 3e
       -0.022486074 -0.060019903 -0.04269445 0.18633012
0003c0 90 c4 e8 3e 2c 64 7a bb 25 65 13 bf be 16 1b 3f
       0.45462465 -0.003820668 -0.5757621 0.60581577
0003d0 1f d4 7a bf c8 4f 88 bf 6c bb 74 3e 44 ba 0a bf
       -0.9797992 -1.0649347 0.23899621 -0.5419047
0003e0 2b 14 10 3d 22 da 01 bd 78 f7 b5 3d 0a 90 13 3e
       0.035175484 -0.03170217 0.088850915 0.14410415
0003f0 0b 05 3a 3f f0 63 25 3e 77 c1 08 bf 4d 09 0c bf
       0.72663945 0.16151404 -0.53420204 -0.5470169

fc1.bias f4 [256]
000000 0f 44 cf 3e 08 6c e3 3e df 33 8a be 6f c0 56 bc
       0.40481612 0.4441836 -0.269927 -0.013107403
000010 10 da b4 3e 79 b8 ed 3d ae 33 ac ba 7d 66 88 3d
       0.35322618 0.11607451 -0.001313796 0.06660173
000020 1b 31 e8 bd f8 b9 83 3e d6 dc fb 3e 5c 6f 9b be
       -0.11337491 0.2572782 0.49191922 -0.30358398
000030 01 f1 81 3d b2 02 5f be 1b f4 ee 3e 2c 56 64 bd
       0.06344796 -0.21778372 0.46670613 -0.055746242
000040 e6 3b ba 3d 79 62 55 3e 87 8e 6b 3d cd fc c3 be
       0.09093456 0.20838346 0.05750897 -0.3827881
000050 38 29 8c be 67 11 d9 be 1f c0 89 3e fd e8 72 3c
       -0.27375197 -0.4239609 0.2690439 0.014826057
000060 f2 37 3d be 02 26 71 3e 5b 03 39 3e b5 34 57 3e
       -0.18478373 0.23549655 0.18067686 0.210162
000070 58 d0 a7 3e 94 17 67 3e a2 44 c7 3e cc d4 78 be
       0.3277614 0.22567588 0.3891955 -0.24299926
000080 b6 8c 10 3e 9f 14 9a be 94 54 f2 3e 21 df 53 3e
       0.14116177 -0.30093858 0.47330153 0.20690586
000090 b4 89 90 3e 50 e0 4b 3e e0 c6 4c be b3 7f 1f bf
       0.2823006 0.19909787 -0.1999774 -0.6230423
0000a0 38 c9 85 3d d2 5f b0 be 0b a9 24 3e 2d bb 9c 3d
       0.0653252 -0.34448105 0.1608011 0.076528884
0000b0 d7 cf c8 3d e1 83 82 3e 43 13 d3 be 39 e8 70 be
       0.09805267 0.2549124 -0.41225633 -0.23526086
0000c0 f5 d3 ab 3e d5 af 78 be de d1 83 be 05 9d 90 3e
       0.33560148 -0.24285825 -0.25746053 0.28244796
0000d0 50 da 16 3f d0 d6 8d be 22 5c 96 be d9 45 50 3e
       0.5892687 -0.2770295 -0.29367167 0.20339145
0000e0 7f e2 6b 3e e6 82 02 bf 59 08 b5 be 30 2f a9 be
       0.2303562 -0.50980985 -0.3535793 -0.33043814
0000f0 59 d5 a3 3d a2 39 1c be 93 0a 9f 3e f3 33 9f 3e
       0.07999677 -0.1525636 0.31062755 0.31094322
000100 cb a4 63 3e b6 36 41 be a2 d9 f7 be 90 a6 e9 3e
       0.22230832 -0.18868527 -0.48408228 0.4563489
000110 1b 76 bf 3e a5 93 c6 be a6 b1 0c 3f 36 fb 5e bc
       0.37394795 -0.3878452 0.5495857 -0.013609698
000120 9b e8 15 bf 35 bb c2 3c 96 88 82 bd 29 07 aa be
       -0.5855805 0.023770908 -0.06373708 -0.33208588
000130 03 f3 b8 bd 65 5f dc 3d 19 4a f4 3d 22 22 07 3d
       -0.09030726 0.107603826 0.119281955 0.032991536
000140 82 eb c0 3e 4b d5 e8 bc aa b6 ee be 3c 2c 69 3e
       0.37679678 -0.028422019 -0.46623737 0.2277078
000150 73 9f ad be d8 e3 a5 3e 46 04 0f 3e fd d8 10 3f
       -0.33910713 0.32400393 0.13966474 0.565811
000160 d4 63 14 be e7 3b a2 3e 02 d9 5f bb e0 7b 48 be
       -0.14491206 0.31686327 -0.0034156446 -0.19578505
000170 d5 49 d5 be fd 3b 81 be 1e 98 47 bd 2d b4 23 be
       -0.41657892 -0.2524108 -0.048729055 -0.159867
000180 0f 4f 13 3e a9 75 11 be 69 ba 89 3d 0f 64 86 3e
       0.14385627 -0.1420504 0.06725008 0.26248214
000190 98 7f ec be bf b7 51 3e 48 ed bd be 98 80 bf be
       -0.46191096 0.2048025 -0.37095094 -0.37402797
0001a0 77 9e 01 3f 43 f5 e2 3d a6 17 a0 be 20 80 aa be
       0.50632423 0.11081936 -0.31268042 -0.33300877
0001b0 29 8f a0 be a5 bb e6 bc fe bd 95 3e 4b 35 d7 3e
       -0.31359223 -0.028165648 0.29246515 0.42032847
0001c0 dd db 8a 3e 4a 01 2b 3e 5c a5 2c be 9e 9f 25 3e
       0.27120867 0.1669971 -0.16859955 0.1617417
0001d0 25 04 86 3e 43 3d 51 be d3 74 0b 3e 11 ab 0f 3f
       0.26175037 -0.20433526 0.13618784 0.561204
0001e0 10 92 9f 3e 8c c3 7b 3e 2d 0e 6c be 41 57 d1 be
       0.31166124 0.24586314 -0.23052283 -0.40886882
0001f0 bb 90 cd bd 0c dc 0f bf da 5d 8f 3e 96 f6 60 3d
       -0.10037371 -0.5619514 0.2800129 0.054922663
000200 2d 71 e1 be a9 ec 39 be 61 9d ef 3e 42 2d 42 3e
       -0.4403166 -0.18156685 0.46799758 0.18962577
000210 93 5e bd 3e 4b 87 6b be 29 91 0d be 01 85 a8 3e
       0.36986217 -0.23000829 -0.13824905 0.32913974
000220 88 96 29 3e 56 a7 d1 3e 8f 9a 5e be 13 76 af bd
       0.1656133 0.4094798 -0.21738647 -0.08567443
000230 1f 4b 07 3e 08 8d 3f bd 6a 4c 00 3e 9b b7 72 bc
       0.1321225 -0.046765357 0.1252915 -0.014814283
000240 f6 5c 40 3a d9 bd 15 bc 90 cd 2d 3e a7 21 97 be
       0.0007338071 -0.0091395015 0.16972947 -0.29517862
000250 5c c3 f0 3e 44 92 d4 3e e0 53 56 3a 5a 53 9e bd
       0.47024047 0.41517842 0.00081759505 -0.07730742
000260 b7 51 77 3e 57 c2 df 3e d5 3d fd 3e a0 3c 0e bd
       0.24152265 0.43702957 0.49461237 -0.034725785
000270 ab 36 38 3e b4 63 8e 3e 20 74 71 3e 3f 50 9d be
       0.17989604 0.27810442 0.23579454 -0.30725285
000280 4b 6e 25 3e ed 6d 0f be 41 e1 e0 be 25 84 7d 3e
       0.16155355 -0.14006777 -0.43921855 0.2475744
000290 83 8b 67 bd ae 71 75 be ed 2f 8d bd 7a 17 03 bf
       -0.056529533 -0.23969147 -0.06893907 -0.512077
0002a0 eb 88 b0 3e 15 39 81 3e 8e 6e 7a 3e 64 e0 52 bc
       0.3447946 0.25238863 0.24456236 -0.012870882
0002b0 f1 6d 0e bd a7 9b ba be d5 16 ce 3c 9b 0d 64 3d
       -0.034772817 -0.36446878 0.025157372 0.055677038
0002c0 69 60 84 3e 4e 60 d4 3d aa 63 c8 bd c2 8f be 3d
       0.25854805 0.10369931 -0.097846344 0.093047634
0002d0 c0 6d 0c bf 0c f0 c9 be 8c 6c 17 be a1 dd 01 bf
       -0.54854965 -0.39440954 -0.14787501 -0.50728804
0002e0 da e5 21 3f 24 d1 bb be 71 a1 67 3d 94 21 09 3e
       0.6324135 -0.36683 0.056550447 0.13391715
0002f0 68 d5 b7 3d 75 83 e4 be 38 77 7e 3d 72 f0 ff bd
       0.08976251 -0.44631544 0.062125415 -0.12497033
000300 1f 9f 66 be a5 ba 36 3d 53 aa 34 bd c4 f9 ed 3e
       -0.22521637 0.04461159 -0.044107746 0.4647962
000310 59 eb 55 3d 3d c5 a0 3e ec b8 1a 3f 81 d9 48 be
       0.0522264 0.3140048 0.6043842 -0.19614221
000320 d7 e6 15 3c 9f 33 ac 3e 27 70 8a 3d b0 bc d5 be
       0.009149275 0.33633134 0.067596726 -0.4174552
000330 ba 98 b7 be c9 c0 78 be 3e 8f e7 3e cf 2c ba 3e
       -0.3585871 -0.24292292 0.45226473 0.3636231
000340 96 09 31 3e 03 9f d3 be dd 6d 86 3e c1 7a fb 3c
       0.17288813 -0.41332254 0.26255694 0.030698182
000350 d4 3d 7d 3e 42 ca 2a 3e 63 03 23 3e eb 32 03 3f
       0.24730617 0.16678718 0.1591926 0.5124957
000360 fd 52 8d be d3 54 8d be d7 fc 9c 3d 67 6d a8 3e
       -0.27602378 -0.27603778 0.07665413 0.32895967
000370 7a c0 cf 3c 82 8c 4a be 53 d6 89 bd 19 f0 dc 3d
       0.025360335 -0.19780162 -0.06730332 0.107879825
000380 58 55 95 bd 95 01 f9 bd 91 b7 85 3c 64 f6 3a bd
       -0.07291669 -0.12158505 0.016322883 -0.045645133
000390 88 1d cd bd e3 e7 8d 3e d9 5f 3c 3e 0c f0 62 3d
       -0.10015398 0.27715978 0.18395938 0.055404708
0003a0 a3 b2 c4 3e ae 79 87 bd d5 26 a9 be 7e 10 f3 3d
       0.3841754 -0.066150054 -0.3303744 0.1186838
0003b0 7e 5d de bb fa a4 dd be 6a 8f bb be 8e 41 46 3d
       -0.0067860475 -0.4328993 -0.36632854 0.04840236
0003c0 c8 ab 68 3e 73 3b 95 bd 50 0d 86 3b 79 98 b8 bd
       0.2272178 -0.0728673 0.0040909424 -0.09013457
0003d0 f5 d1 96 3e 64 08 cf bd 46 2d 17 be f8 bf 0a 3f
       0.2945706 -0.10109022 -0.14763364 0.5419917
0003e0 72 36 8b bc ab f3 94 bc 1a ab 69 3e 42 cc eb be
       -0.016993735 -0.018182596 0.22819176 -0.46054274
0003f0 d8 cb 75 be ff 10 77 3d 5a b3 23 bd 2d 30 9c 3e
       -0.24003541 0.060318943 -0.039965965 0.30505505

fc2.weight f4 [256, 256]
000000 10 af 78 3e 0b 5b b7 3e 78 08 ff 3d 17 13 b8 3e
       0.24285531 0.35811648 0.12452787 0.35952064
000010 f2 ec d7 be 6c f0 c8 3e b2 b6 9c be c0 36 17 3c
       -0.42172962 0.39245927 -0.30608135 0.009229362
000020 ad 39 99 bd 55 66 05 be bc fe 92 bf dd bb 2b 3f
       -0.07481704 -0.13027318 -1.1483989 0.6708353
000030 a9 d7 bd bd e3 dd a7 3d e6 ba 26 be 1b 21 dc bc
       -0.092696495 0.081966184 -0.16282234 -0.026871255
000040 7d 14 a1 bd 33 48 09 3e ec 43 1d be 11 c7 00 bf
       -0.07865236 0.13406448 -0.15357941 -0.5030375
000050 59 5e 2c 3e 84 34 c2 be bf 61 15 bd 85 36 90 bc
       0.16832866 -0.3793069 -0.03647017 -0.017604122
000060 8d 42 8b be d2 ea 63 be 78 42 ca 3d 67 1d d1 be
       -0.27199212 -0.22257546 0.09875959 -0.40842745
000070 7e c1 8c be 4c 8a 7c be 17 27 41 3e a6 54 80 bf
       -0.27491373 -0.24662131 0.18862568 -1.0025833
000080 c8 69 8a 3e 36 f9 ae 3e 79 0e e7 bd e9 dc 62 3e
       0.2703383 0.34174508 -0.11282057 0.22154583
000090 9e 8e 15 bc 80 c2 99 3b bb 28 e9 be 9f 79 a7 be
       -0.009128241 0.0046923757 -0.45538887 -0.32709977
0000a0 68 1c 84 3d 3c 92 9f bf 72 27 d1 be 8d e8 04 be
       0.064507306 -1.2466502 -0.40850407 -0.12979336
0000b0 89 fa 0d 3d e7 98 db 3d 8b 78 fa 3d 2a cd fa be
       0.034662757 0.10722523 0.12230023 -0.48984653
0000c0 50 4d 66 3d a3 bc 3b bf b0 ef cf bd 15 89 12 3e
       0.056226075 -0.7333471 -0.10153139 0.14310105
0000d0 39 b8 d7 bd e0 c0 07 3d 34 4c 08 be a0 44 b0 bf
       -0.105331846 0.033142924 -0.13310319 -1.3770943
0000e0 b5 fc 0b 3e 6b 0b cb bf 46 5d 9e 3e 4f 42 46 bd
       0.13670619 -1.586286 0.30930537 -0.04840308
0000f0 08 af 02 3e 72 95 b6 3d 37 d9 1a bd cc e4 f1 3d
       0.12762082 0.08915223 -0.03780481 0.11811218
000100 1b ad 5d bb b0 0c 62 bc f5 17 42 3f 6c 76 31 3e
       -0.0033825103 -0.01379697 0.75817806 0.1733033
000110 73 6b dc bd 06 28 09 be fc 5b 95 3d 15 05 7d 3f
       -0.10762682 -0.13394174 0.07292935 0.9883588
000120 2b e8 84 bf ab 75 78 be a8 03 3c 3d b6 f2 75 be
       -1.0383352 -0.24263637 0.045901924 -0.24018368
000130 78 90 07 be 01 99 b6 be 57 94 46 3e 24 83 a5 3c
       -0.13238704 -0.35663608 0.19392525 0.020204134
000140 1e 26 f1 3d ee fc 85 3d 40 70 15 bf fa 19 88 3e
       0.117748484 0.06542383 -0.58374405 0.2658232
000150 e5 61 20 3e f1 91 3f 3d 1e 53 70 3e dd fe 97 bf
       0.15662344 0.04677004 0.23469207 -1.1874653
000160 26 47 61 3e f2 1d 85 bc 42 c4 0d 3f b7 58 b2 be
       0.21999797 -0.01624963 0.5537759 -0.3483331
000170 ac f9 76 be a1 0f 0e be 30 b1 39 be 84 c4 2e 3f
       -0.2411868 -0.1387315 -0.18133998 0.6826861
000180 0c db 40 be bc c8 f1 3d a5 5b 01 be ce 87 cd bd
       -0.1883356 0.11805865 -0.12632616 -0.10035668
000190 a5 18 c1 bf 9e 04 b3 bd bf 86 82 bf 0d 2b 8a bf
       -1.5085646 -0.08741115 -1.0197371 -1.0794388
0001a0 ef 72 9b bd 5d 45 4b 3e 0a 8e 24 bf 71 2e dd be
       -0.07590281 0.19850679 -0.64279234 -0.43199494
0001b0 5d 50 95 3c 6c 4a 20 3e 0c 38 47 3d 28 6a 1a 3d
       0.018226797 0.1565339 0.048637435 0.037698895
0001c0 5e b3 08 3b d6 f6 2f be c3 83 bb 3d f8 d0 b1 3e
       0.0020858864 -0.17184004 0.09155991 0.34729743
0001d0 dc 9f 9d bd 54 d8 09 be c5 2c 2a 3d 1e bd 7b 3d
       -0.076965064 -0.13461429 0.0415466 0.061459653
0001e0 7a 46 36 be af 16 8f 3e c1 90 7d be 27 ff 9e 3f
       -0.17800322 0.27946994 -0.2476225 1.2421616
0001f0 07 2e d7 bd 60 a4 82 bf 4f a8 1a 3e d6 d2 84 bd
       -0.10506826 -1.0206413 0.15103267 -0.06485526
000200 63 ac d2 be 3a c4 26 be f3 77 1d bc f0 78 8a 3b
       -0.41147146 -0.16285792 -0.009611118 0.0042258427
000210 b0 d1 9a 3e e4 77 b3 be 18 34 ee 3d 93 73 5c bf
       0.30238104 -0.35052407 0.1163103 -0.8611385
000220 ee 02 d2 be 9f 5e d2 bc 1f 7a b5 be b5 76 79 3d
       -0.4101786 -0.025679884 -0.35444734 0.060904223
000230 fa fb 62 bf 5a 3e 0e 3f 29 f3 5f 3d 6e 2c 97 3e
       -0.88665736 0.5556389 0.054675255 0.29526085
000240 a4 52 e4 be 32 a3 ee bd 3b 91 39 be 4e 9c 25 be
       -0.445943 -0.11652221 -0.18121807 -0.16172907
000250 97 82 d2 bc 49 2b e8 bf 04 37 db bc 67 a2 02 3f
       -0.025697036 -1.813821 -0.026759632 0.51029056
000260 28 4f 91 be ea eb 39 bd d2 50 18 3e 4d f3 98 3d
       -0.28380704 -0.045391 0.1487458 0.07468281
000270 d8 f9 70 be 9e a7 1e 3d d6 f0 17 bf c9 da f4 bd
       -0.23532808 0.03873407 -0.5935186 -0.119557925
000280 58 e8 0a be 37 46 19 bf 17 c6 06 3e b2 41 7e bf
       -0.13565195 -0.59872764 0.13161503 -0.99318993
000290 80 ea d3 3e 55 43 1a 3f be d5 28 be 4c cf 76 bf
       0.41389847 0.6025899 -0.16487786 -0.9641006
0002a0 91 4f 58 3d 6e f9 30 be ab 47 a2 3e 20 a3 18 3c
       0.052810255 -0.1728265 0.31695303 0.009316236
0002b0 42 8d 0f 3e 11 60 01 3f 40 61 03 3f ae d9 56 3f
       0.1401873 0.5053721 0.51320267 0.839259
0002c0 0d e4 0a 3e cd d5 33 be 2f 5f e8 3c 29 b2 c1 3e
       0.13563557 -0.17562027 0.0283657 0.37831238
0002d0 06 34 2e bf e7 50 9e bf 2d b0 9e be dd ac f7 be
       -0.6804813 -1.236844 -0.30993786 -0.48374072
0002e0 05 52 db 3c 11 75 01 3e ef e3 ba be 0e bc ef bc
       0.026772508 0.12642314 -0.36502025 -0.029264476
0002f0 de a0 ec bd fa da 96 be af 88 87 3e 14 b2 9c 3d
       -0.115541205 -0.2946394 0.2647147 0.07651153
000300 af 6d d2 bd 74 4d ec 3e 4d 65 8d 3e 80 17 20 3e
       -0.10274827 0.46152842 0.2761635 0.15633965
000310 f2 84 d7 3d 93 c9 0e be d8 67 aa be f3 bf 99 be
       0.10523404 -0.13944082 -0.33282351 -0.30029258
000320 25 cd 6a bf f9 07 15 3e 3b 8c 89 be 86 62 a3 3e
       -0.91719276 0.14553823 -0.268648 0.31911105
000330 3b 9d 6f bf fb 47 21 bf 31 14 1a be 13 67 09 bf
       -0.9359929 -0.6300046 -0.15046765 -0.53672904
000340 4b 1f 9b be a0 66 5f be 11 e6 83 be 7d ab 02 be
       -0.30297312 -0.21816492 -0.25761464 -0.1276073
000350 a3 59 62 be ef 7e 28 3e e6 d7 bd be 3e af fe be
       -0.22104506 0.16454671 -0.3707878 -0.49743074
000360 92 56 43 3f 9c 62 b8 be fd 6d f9 bc e6 d5 e4 3e
       0.7630397 -0.36012733 -0.030447954 0.44694442
000370 ab ed 68 be a0 14 16 3f fb 47 15 3f 3a 3d 9b be
       -0.22746913 0.5862522 0.5831296 -0.3032015
000380 70 f7 36 3e 44 c4 a6 bd a9 52 61 3f 01 96 80 be
       0.17867827 -0.081429034 0.88016754 -0.25114444
000390 b9 3f c4 be cb da 59 3d 1b 0c a5 3e 77 2e 93 be
       -0.38329867 0.053187173 0.32235798 -0.28746387
0003a0 9b 86 10 be 29 66 87 3e 72 7b bd 3c 52 9e 5e be
       -0.14113848 0.2644513 0.023130152 -0.21740082
0003b0 75 48 a0 be 90 ff 80 bf 14 4b ed be 36 f3 1b 3e
       -0.3130528 -1.0077991 -0.46346343 0.15229496
0003c0 75 22 38 be 61 bb 54 3c e7 86 eb be c9 31 4c 3f
       -0.17981894 0.012984128 -0.4600136 0.79763466
0003d0 f6 90 79 bb 80 a2 49 be fc 0e 57 bf 86 61 5c 3d
       -0.0038080788 -0.19690895 -0.8400724 0.053803943
0003e0 97 cb a0 be 7b dc d9 be 5c 85 60 be 6b 71 a1 3c
       -0.31405327 -0.42551026 -0.21925873 0.019707402
0003f0 ea 0e 95 3e 06 9c 59 3e b8 1d 62 3d 7e 80 45 3e
       0.2911294 0.21250924 0.055204123 0.19287297

fc2.bias f4 [256]
000000 7a b4 c3 bc 4c b0 76 3e 29 26 1e bd ef 88 96 be
       -0.023889769 0.2409069 -0.03861061 -0.29401347
000010 7d 13 fc bd c2 ea 83 bd 31 b2 47 3e 4f 40 23 bd
       -0.123084046 -0.06441261 0.19501568 -0.03985625
000020 4e b6 24 3d e7 8e 27 bc 33 3e 73 3e 2e f1 67 3e
       0.04021292 -0.010226942 0.23754196 0.22650596
000030 4c d2 3f 3d 4e e7 65 3e 0c 18 0c 3d 55 fe 28 bd
       0.046831414 0.22451517 0.03420262 -0.041258175
000040 8e 03 8f 3c 83 3b 1b 3e 30 85 19 3e f3 cc 89 3e
       0.01745775 0.1515942 0.14992213 0.26914176
000050 8f 17 2d bd 52 6e c3 bd 01 53 33 3e 75 9d 01 3e
       -0.042258795 -0.09542526 0.17512132 0.12657721
000060 b6 13 01 3d 76 2d 8f 3e 3e 0d f0 3e 14 a4 63 3d
       0.03151294 0.2796437 0.46885103 0.0555764
000070 93 a6 41 bd c7 d9 e9 3d 40 67 85 3b 50 2a 4e bd
       -0.047278 0.11418491 0.0040711462 -0.05033332
000080 b7 7f b0 3d ad 7f ba bd 25 6f 41 be ba 13 cf 3d
       0.0861811 -0.091063835 -0.18890055 0.101111844
000090 26 55 1e bd df 94 a2 be 5d 43 1e 3e ca af f5 3d
       -0.038655423 -0.31754205 0.15455385 0.1199642
0000a0 b4 85 d9 bd 39 de 44 3e f6 f0 08 3e 7c ad 3d 3c
       -0.10621205 0.19225396 0.1337317 0.011577006
0000b0 94 e4 00 3e 0e 72 a1 bd 35 05 28 bd 51 3f 34 3e
       0.12587196 -0.07883082 -0.04102059 0.17602278
0000c0 87 ac b4 bd 3e 9a c8 3d 07 cf 83 3e 53 e4 82 3e
       -0.088219695 0.09795044 0.25743887 0.25564823
0000d0 5a 9e 07 3e b4 c8 ed bd 39 5e 91 3d 78 62 b1 3e
       0.13244 -0.11610547 0.0709805 0.34645438
0000e0 a6 a5 ad 3b 68 59 18 be 0f 07 7f 3e d2 0f 80 3d
       0.005299288 -0.14877856 0.24905036 0.062530175
0000f0 6c a2 5c 3e cf 8b 29 3d 16 e1 25 3d fb 6e 06 3e
       0.21546334 0.041393097 0.04049786 0.13128273
000100 f7 a7 31 3d a2 bc 44 be af 84 57 3e 35 ba 32 be
       0.043373074 -0.19212583 0.21046709 -0.17453845
000110 78 e8 9d 3d 78 eb 2f 3e d4 0a 17 be 29 c1 c5 bd
       0.077103555 0.17179668 -0.14750224 -0.09655983
000120 9e 93 d7 3d 25 b2 37 be 01 37 1b 3e 9b 68 8c 3e
       0.105262026 -0.1793905 0.15157701 0.27423558
000130 2c 0a 3e 3d 82 a3 db 3d 77 da 1f bd 46 f5 7c 3e
       0.04639642 0.10724546 -0.039026704 0.2470294
000140 df 2a 2c bd 44 36 25 bc 79 0c 53 be 5d 24 da 3d
       -0.042033073 -0.010083739 -0.20610227 0.10651467
000150 7b fd 1d bc f5 d1 01 3e 89 34 dc 3b fc e3 aa 3d
       -0.009642954 0.12677749 0.00672013 0.08344266
000160 40 a9 89 3d bb 63 c0 3c b7 f4 ed 3d f8 7c 67 bb
       0.06721735 0.023485055 0.11618941 -0.003532229
000170 40 01 94 3e 91 f0 59 3e 52 0b a2 3e 47 33 03 bc
       0.28907204 0.21283175 0.31649262 -0.008007831
000180 95 76 82 3b 8e 80 06 be 02 c5 7d 3d 27 34 75 3e
       0.0039814212 -0.13134977 0.06195546 0.23945676
000190 5a de 88 bd 10 87 5f 3e d8 48 80 3e 16 cb 90 bd
       -0.06683035 0.21828866 0.25055575 -0.070699856
0001a0 50 c7 6c 3e 90 bf 81 3e cc 0d bc 3d 5e 70 89 ba
       0.23122907 0.25341463 0.09182319 -0.0010485759
0001b0 de a6 f0 3d 4d 1d 43 be 53 7a 71 3e 46 ad 12 be
       0.117505774 -0.19054146 0.23581819 -0.14323911
0001c0 bc 06 58 3c 32 7b 3f 3e ef 10 04 3f db b9 0a be
       0.013185199 0.18699339 0.5158834 -0.1354746
0001d0 ce ee 11 3d 3a 24 9e 3d 50 d4 58 3e 5b 1e 05 be
       0.035628133 0.077217534 0.21174741 -0.12999861
0001e0 bf 94 01 3e 48 bc 6b bd a4 1a 1e 3e d3 06 89 bc
       0.12654398 -0.057552606 0.1543985 -0.016726887
0001f0 78 02 98 3d f2 04 e0 3d da e5 db 3d 3b bc 2e 3e
       0.07422346 0.10938443 0.107372 0.17063992
000200 b0 c3 6b bb d9 94 31 3e ff 4d 0f 3e 96 97 9d bc
       -0.0035974793 0.17341937 0.13994597 -0.01923732
000210 d0 be a8 3d 50 b3 46 3c 6c 21 5d 3d 13 c4 67 3e
       0.082395196 0.012127712 0.05398695 0.2263339
000220 6e 36 f9 3c a6 a5 e9 3d 62 23 dd bd a3 49 0d 3e
       0.030421462 0.11408548 -0.10797764 0.13797621
000230 5f 87 90 3d d7 8a a7 bc 4b 89 d0 3e 4e 1a 08 3e
       0.0705707 -0.020451946 0.40729746 0.13291284
000240 95 bb ab 3c 3f 86 c3 bd 3d 74 5e 3e 81 b8 68 3e
       0.02096347 -0.0954709 0.21724029 0.22726633
000250 d7 09 3d 3d d6 69 58 bd 94 21 0d 3e e3 a5 1a 3e
       0.046151962 -0.052835308 0.1378234 0.15102343
000260 46 86 10 be e9 77 26 3d c8 91 af 3d d5 a9 56 bd
       -0.14113721 0.0406417 0.085727274 -0.05240806
000270 da 49 e4 bc d4 c4 78 bc fa f9 57 3e 9b 54 7a 3b
       -0.027867246 -0.015183646 0.21091452 0.0038197401
000280 49 70 1c 3e fe 88 50 3e 9d f6 05 bc d8 0d 5f 3e
       0.15277208 0.20364758 -0.008176473 0.21782625
000290 f5 25 26 3e fa 61 5f bd d8 e8 44 3e 78 d4 48 bc
       0.16225417 -0.054536797 0.19229448 -0.012257688
0002a0 4f d9 40 3c 06 9a ef 3d 80 37 99 bc 55 58 80 bd
       0.01177056 0.116992995 -0.018703222 -0.06266848
0002b0 c3 7f f1 3c 57 5e 32 3e 1f a6 61 3e 58 b8 24 3e
       0.029479867 0.174188 0.22036026 0.16085947
0002c0 64 85 31 be 90 86 b8 3d e0 b3 94 bc 94 1a 95 3d
       -0.1733604 0.09010041 -0.018152177 0.0728046
0002d0 79 5a d9 3d 4d f5 4e bd 73 88 33 3e e0 a8 d5 3d
       0.106129594 -0.050526906 0.1753252 0.10432601
0002e0 03 91 c4 be db 11 cf bc 39 33 26 3e 7e 1d fd bc
       -0.38391885 -0.025277069 0.16230477 -0.030897852
0002f0 94 5f 1b 3e e9 32 0e bd 75 13 0a bc 51 dd 8c 3e
       0.15173179 -0.03471652 -0.0084274905 0.275126
000300 1b 2c 07 3e 9b 2b 39 3e cf 9a c6 3d 73 7e 93 3c
       0.13200419 0.1808304 0.09697496 0.018004632
000310 0a 1c a4 bd ad be 6a 3e 55 e4 bb 3d 0e 0d 5e bd
       -0.080131605 0.229243 0.0917441 -0.05421167
000320 36 ef ca 3c f5 18 3a bd be 5b 76 3e 50 df 53 3d
       0.024772268 -0.045433957 0.24058434 0.05172664
000330 67 2c c5 3d eb 2f a4 3c 29 d4 2f bd 3e d9 43 3e
       0.0962761 0.02004238 -0.04292694 0.1912584
000340 30 30 de 3d f1 c2 67 bd c4 f9 00 3d 90 eb a3 be
       0.10849035 -0.056582395 0.031488195 -0.32015657
000350 70 a0 ae 3d 50 5b 2a be b8 89 c9 bd b0 c3 fe 3d
       0.08526695 -0.16636395 -0.09840721 0.12439668
000360 31 aa 62 3d 65 7b cd 3d 36 69 6d 3e 31 4a d9 3d
       0.05533809 0.10033301 0.23184666 0.10609854
000370 1c f3 5e 3c 31 b7 04 3e b9 12 fb 3e 83 90 51 3d
       0.0136077665 0.12960507 0.49037722 0.051163208
000380 65 96 88 3c 0c ea 2f 3c d0 06 93 bd 91 0d 7c bd
       0.016673276 0.0107369535 -0.07179034 -0.061536375
000390 33 af 8e bc b0 a1 11 3d d3 49 ec 3b 25 d9 99 3d
       -0.017417526 0.035554588 0.007210949 0.0751212
0003a0 4d bd e0 3d 38 1c c1 3c b7 dd a4 b9 3d 06 e6 3c
       0.10973606 0.023573026 -0.00031445708 0.028079147
0003b0 c6 18 4d be 95 48 8d bd 5e a3 a3 bc cc ef df bc
       -0.20028982 -0.068986095 -0.01997536 -0.027336024
0003c0 86 e1 18 bd ec 7d 1f 3e 40 c5 f2 3d 7e bb 52 bd
       -0.03732445 0.15575379 0.11854029 -0.051448338
0003d0 0c e3 03 3d f8 8e a1 bd b7 8b e5 bd e8 7e 0f 3e
       0.03219895 -0.07888597 -0.11208289 0.14013255
0003e0 07 83 a3 3d 62 4c 8d bd 3c 32 7b 3e 32 66 83 be
       0.07983976 -0.068993345 0.24530882 -0.25663906
0003f0 41 78 54 3e 57 d1 22 3e 1b e8 b4 bd 5e b9 49 3e
       0.20748998 0.1590017 -0.08833333 0.19699618

fc3.weight f4 [1, 256]
000000 43 63 0b 3f a8 24 51 bd 73 d2 91 be 0e 74 67 3e
       0.54448336 -0.05106035 -0.28480873 0.22602865
000010 6f 9b 6c 3f 87 f7 34 bd 58 c3 ed bd 79 57 4e 3f
       0.9242467 -0.044181373 -0.116095245 0.8060222
000020 dc c2 04 bf c6 aa 27 bf c5 49 63 3e bb ec 5c 3f
       -0.5185983 -0.65494955 0.2219611 0.8629872
000030 9c ea 3b bc 2a 06 b2 3e 5e 5e 33 bd 4e 72 55 3d
       -0.011469509 0.34770328 -0.043791167 0.052110963
000040 ce 65 6d bb 05 3b d0 3e b0 29 76 3f c2 97 10 be
       -0.003622401 0.40670028 0.9615736 -0.14120391
000050 af 73 8d 3b 07 41 63 bf 77 af 62 bd 53 33 04 3f
       0.004316769 -0.887711 -0.055343118 0.51640815
000060 5b 77 54 3b e7 6e a2 3e 33 b2 97 3f 17 f0 4f 3e
       0.0032419774 0.31725237 1.1851257 0.20306431
000070 49 68 0c ba c8 19 c1 3e 12 ec 95 3e 42 53 aa 3c
       -0.0005356116 0.37714982 0.2928167 0.020791654
000080 9f 2e 84 bf 1f 15 e9 3e 08 a5 1f 3f af 6a 1f be
       -1.0326728 0.45523927 0.6236119 -0.1556804
000090 f6 8e 64 3e 85 d7 51 3f c2 6a 06 be b3 af d2 3d
       0.2232016 0.8196948 -0.13126662 0.10287418
0000a0 c5 85 fb 3d 39 05 a7 3e da 6d ac 3e 4b 9d b4 bb
       0.12281374 0.32621172 0.3367756 -0.005511915
0000b0 4e 0d 72 3e 68 c7 26 bd ad 90 1e 3b 26 0b 21 bf
       0.23637888 -0.040717512 0.002419512 -0.62907636
0000c0 3d e4 bd 3f fa e3 8f 3e 2b 19 97 3e 6b 58 c5 be
       1.4835278 0.2810362 0.2951139 -0.3854402
0000d0 d1 69 97 bf ca e1 dd 3e ff c0 1c bf b5 d8 e2 3e
       -1.1829168 0.43336326 -0.6123199 0.4430596
0000e0 f4 bd 1f 3d 75 d2 9d 3e 47 62 04 bd 86 ac 21 3e
       0.038999513 0.30824628 -0.032320287 0.15788469
0000f0 8e 59 3b be 04 5a 53 bf f8 21 92 3e fe 72 40 be
       -0.18295881 -0.8255923 0.2854154 -0.18793866
000100 ac ab 4d bf c7 22 e5 3d fc cf 8c 3e ce b9 ea bf
       -0.80340075 0.11188274 0.2750243 -1.8337953
000110 21 80 12 bf eb 96 f1 be dc 54 af 3e 00 21 b5 3e
       -0.5722676 -0.47185454 0.3424443 0.3537674
000120 16 53 0f be c8 2e 9f bf ec 44 c1 3e 8e e8 88 be
       -0.13996539 -1.2436152 0.37747896 -0.26739925
000130 7a 80 08 3b 7b 08 90 3e 9f 5b d5 3c d2 81 7a be
       0.002082853 0.2813147 0.026044665 -0.24463585
000140 1c 2c 54 3f ad 7e 4a 3e d1 a1 52 3e 08 5c 9f 3e
       0.82879806 0.19774885 0.2056954 0.31124902
000150 47 5d 94 bf 2c a3 cf be ca b1 27 3e 37 aa ab 3f
       -1.1590966 -0.40554178 0.16376415 1.341132
000160 36 b4 78 3e 4a e5 b1 bf ea b6 be ba e6 cf 9f bb
       0.24287495 -1.3898098 -0.0014550362 -0.0048770783
000170 34 d1 a8 bd ac 17 cf bf 32 70 ae 3e 6c a0 83 bc
       -0.08243027 -1.6179099 0.34069973 -0.016067706
000180 4b 8e ae 3e 7f 8d bc 3e 75 1e 5f bb 83 2b 38 be
       0.34092936 0.36826703 -0.0034045253 -0.17985348
000190 47 c7 15 3d 09 d3 c7 3e 9d 80 01 3f 0d d1 65 3d
       0.036567 0.39028195 0.50586873 0.05610757
0001a0 de 0c 22 be 2e f3 05 bf 53 d6 d6 3e 63 68 d6 bb
       -0.15825221 -0.5232419 0.4196039 -0.0065432056
0001b0 21 80 3b bf d5 39 49 3e cd 09 0e 3f 3c e1 af 3f
       -0.73242384 0.19650967 0.55483705 1.3740611
0001c0 4f 01 ae 3c 37 2a 12 be da b7 87 bf 7d 0d 87 3e
       0.021240858 -0.14273916 -1.0602982 0.26377478
0001d0 f0 ab 86 bb 50 4c 9d 3b d9 a1 04 be b1 ba 40 3e
       -0.004109852 0.004800357 -0.12952365 0.18821217
0001e0 00 3b cf be c9 a4 c1 3e ca fe ad 3e 25 1e 72 3e
       -0.404747 0.37821034 0.3398345 0.23644312
0001f0 f6 f4 78 be 26 36 ee be bf da 92 3e 36 ff 3d bd
       -0.24312195 -0.46525687 0.28682515 -0.046385966
000200 06 ae 63 3d 07 0e 91 3e cf 1f 8c 3e 22 c8 81 bb
       0.055585884 0.28331015 0.27368018 -0.0039606253
000210 65 a0 dc 3d 3f d7 e5 3b c9 2c 86 3e 93 bd d5 bd
       0.1077278 0.0070141847 0.26206043 -0.10436549
000220 11 a2 b0 3c 79 df 90 3e 89 23 33 3e da 7f 0b 3f
       0.021561654 0.28295496 0.17494024 0.5449196
000230 ca fb 1b bf 80 06 98 3c c6 74 42 bf 9a 85 ce bf
       -0.60931075 0.018557787 -0.7595943 -1.6134522
000240 a9 c7 a9 3e 20 f5 c8 3e 93 a4 c0 bf ed 83 a8 be
       0.3316014 0.39249516 -1.5050224 -0.3291315
000250 e3 12 8f 3c 0f ac ac bc e4 0a 73 3e b0 6a 67 bf
       0.01746506 -0.021078138 0.23734623 -0.9039717
000260 37 4c 45 3f bf 74 a8 be e3 8c ae 3f f4 82 67 3c
       0.7706942 -0.3290157 1.3636745 0.014130343
000270 0e 60 ed 3c 6e e1 b8 3e dc 4e fe 3e 8f 31 4b bb
       0.028976467 0.3610949 0.4966954 -0.003100488
000280 6e 19 ee 39 9d f2 a4 be de c2 c4 3b f7 16 b8 3e
       0.00045413844 -0.3221635 0.0060046753 0.3595502
000290 90 ae 6e 3e f7 42 4e bd c0 a4 f2 bd 31 4d 16 3c
       0.23308778 -0.05035683 -0.1184783 0.009173677
0002a0 cc d0 44 bf 51 8a df 3e 53 b6 22 3f 9b cd 0a 3f
       -0.768811 0.43660215 0.63559455 0.5421998
0002b0 28 e1 53 bd e4 e7 05 be 9c 9d b9 3e c8 c3 b1 3e
       -0.051728398 -0.1307674 0.3625306 0.34719682
0002c0 84 11 87 3f b0 4d 25 bf 0f 19 1d 3f 12 3f 04 bf
       1.055222 -0.64571667 0.6136636 -0.5165874
0002d0 d6 e3 b3 3e 50 af d6 3c 7d b2 16 be 8c fd d4 be
       0.35134763 0.026206642 -0.14716525 -0.4159969
0002e0 4b 85 e1 3f e1 e3 2b 3b 77 2e b4 3e 1c 20 01 bf
       1.7618803 0.0026228356 0.351917 -0.5043962
0002f0 ff b6 93 3e 4a 54 2b 3d bc aa 58 bb 50 6c 98 3e
       0.28850552 0.04182843 -0.003306075 0.29770136
000300 6f 28 17 bf f0 d0 8d 3e 23 32 04 3f db 4d c2 3e
       -0.5904607 0.2769847 0.51639 0.37950024
000310 db 82 ea 3e 9e 2d 01 be 9d 20 fc bd 28 18 84 3f
       0.4580296 -0.12615058 -0.12310908 1.0319872
000320 48 0c 51 3c 03 3c a8 3d d7 5e 0f bf 3c f2 23 3e
       0.012759276 0.08214571 -0.5600409 0.16010374
000330 bf 4d 7b 3e 4b 3e b7 3c a1 05 94 bb 2b aa b3 bd
       0.24541377 0.02236857 -0.0045172726 -0.08772691
000340 c9 17 2b bf 46 f4 d5 bb c6 79 11 3e 64 02 89 3f
       -0.6683317 -0.006529364 0.14206609 1.0703855
000350 c2 e7 ce be 9f fc 37 3f f3 00 22 3f ee 6e 1f be
       -0.40411192 0.71869844 0.632827 -0.1556966
000360 93 73 44 bf e7 da 31 3c 1f 27 ac 3e 4b 68 ee bd
       -0.7673885 0.010855413 0.33623597 -0.11640986
000370 a9 bd 83 bb 97 74 eb ba 3b 3b 1b bf ad e4 13 3c
       -0.004020412 -0.0017963824 -0.60637254 0.0090266885
000380 23 58 aa 3c a1 c1 94 3e 82 5a 49 3f fd 91 37 3e
       0.02079398 0.29053977 0.7865373 0.17926784
000390 e6 a0 29 3d fd e8 a7 3c d0 2e 05 3d ac 34 6d 3e
       0.04141321 0.02049684 0.032515347 0.23164624
0003a0 1d 8f 01 bc 74 ab 38 bb 29 e7 1b be 3f 4a 9b 3c
       -0.007907656 -0.0028178366 -0.152249 0.018956302
0003b0 3a 74 1d 40 4c 3b 33 3c 1f 6e c6 3c bd c9 a6 3c
       2.460219 0.01093943 0.024222432 0.020359868
0003c0 9c 7b 67 3c 20 97 ef bc e1 20 4f 3e 29 30 68 be
       0.014128592 -0.029246867 0.20227386 -0.22674622
0003d0 f6 38 da 3e c8 d7 07 3f a1 a2 03 3f 48 bd 85 bf
       0.42621583 0.5306363 0.51420027 -1.0448389
0003e0 45 04 6c 3e c7 dc 3d bd 23 af 55 bf 0e 0d 55 3f
       0.23048504 -0.046353128 -0.8347036 0.83223045
0003f0 07 62 d1 3e 7a aa 90 3e 81 b6 50 3f 08 c7 98 bd
       0.408951 0.28255063 0.8152848 -0.07459837
